results/case_0/noise_0.030/5_25_50_40/model.pth (torch, 21206 bytes, 16 tensors)

log_Ng_params f4 [2]
0	0xbca28f41	-0.0198437
1	0x3d1bb6a6	0.038015984

log_Tg_params f4 [2]
0	0x3da39022	0.079864755
1	0x3dc33a16	0.095325634

solution_network.0.weight f4 [25, 1]
0	0x401b0bc9	2.4225943
1	0xbfe5f3d3	-1.7965034
2	0xbdcf6b43	-0.101278804
3	0xbff9c7ff	-1.9514159
4	0xbfb07520	-1.3785744
5	0x400839b5	2.1285222
6	0x3fd58aca	1.668298
7	0x3c656f17	0.014003537
8	0x3fb4683e	1.4094312
9	0x3fe47edb	1.7851213
10	0xbf9b1d2f	-1.2118281
11	0xbfefc085	-1.8730627
12	0x400f3332	2.2374997
13	0x3f96eed4	1.1791635
14	0x3fd8af2c	1.6928458
15	0x4015663b	2.3343647
16	0x3fc79cdb	1.5594743
17	0xbc7b6731	-0.015344427
18	0x3fff1fa7	1.9931535
19	0x3c4fbc31	0.012679146
20	0xbe78a50f	-0.24281715
21	0xc0011dfe	-2.0174556
22	0xbfce04df	-1.6095237
23	0xbefc2ac0	-0.49251366
24	0xbc1b8314	-0.009491701

solution_network.0.bias f4 [25]
0	0xbd9d8fa5	-0.07693414
1	0x3f3f27de	0.7467021
2	0x3fbbe502	1.4679263
3	0xbdb83559	-0.0899455
4	0xbca27aff	-0.01983404
5	0x3dbc4477	0.09192746
6	0x3df8db41	0.12151194
7	0xc00b3138	-2.174879
8	0xbf052873	-0.52014846
9	0xbf8306d6	-1.0236461
10	0xbd7edeae	-0.062224083
11	0x3e377144	0.17914301
12	0xbe212ae1	-0.15739013
13	0x3f190b3c	0.5978277
14	0xbf5dc2e7	-0.8662552
15	0x3e86d237	0.26332256
16	0xbf5aa4c5	-0.8540767
17	0x40158029	2.3359473
18	0x3cf399fb	0.02973651
19	0xc0011441	-2.0168612
20	0x3f87225c	1.0557361
21	0x3e7d6209	0.24744429
22	0x3f06c2c0	0.52640915
23	0x3f308bba	0.68963206
24	0x3fcbe214	1.5928369

solution_network.2.weight f4 [25, 25]
0	0xbf1fc74d	-0.62413484
1	0x3f0c9692	0.5491725
2	0xbe18ea21	-0.14933063
3	0x3f36a11f	0.713396
4	0x3ea173e7	0.3153374
5	0xbf5c52c3	-0.86063784
6	0xbf075ebc	-0.5287893
7	0xbf23fa22	-0.6405355
8	0xbf39f188	-0.7263417
9	0xbf4fa4b5	-0.811107
10	0x3f086a37	0.5328707
11	0x3f124338	0.5713382
12	0xbf84032a	-1.0313466
13	0xbea0b29e	-0.31386274
14	0xbf73c6f7	-0.9522547
15	0xbf348630	-0.70517254
16	0xbf6ca011	-0.9243174
17	0x3e1ad83e	0.15121552
18	0xbf2b0786	-0.66808355
19	0xbf56aea2	-0.8386022
20	0x3ed8534e	0.42251056
21	0x3f39f6d6	0.72642267
22	0x3ec02de4	0.37535012
23	0x3ee2d36a	0.4430192
24	0x3eddb3a8	0.4330113
25	0x3cdefc11	0.027219804
26	0xbececd8a	-0.4039119
27	0xbf20f434	-0.62872624
28	0xbf07a6b1	-0.52988726
29	0xbeb8e207	-0.36109945
30	0xbdb44abd	-0.08803318
31	0xba8d75c8	-0.0010792548
32	0x3f2a1f28	0.6645379
33	0x3e8bcbe2	0.27303988
34	0x3e4ef872	0.20211962
35	0xbe82348d	-0.25430718
36	0xbe68cff4	-0.22735578
37	0xbd05b3bf	-0.032642122
38	0x3e571565	0.21004255
39	0x3e34c792	0.17654255
40	0x3d9e1e7d	0.07720659
41	0x3e3648d2	0.17801216
42	0xbf94c06b	-1.1621221
43	0xbd52a951	-0.051431004
44	0x3f3d5e10	0.73971653
45	0xbfb57aca	-1.4178097
46	0xbf0d3bd0	-0.5516939
47	0xbf070588	-0.52742815
48	0xbf5af54b	-0.8553054
49	0xbf3d6e66	-0.7399658
50	0xbf5925a2	-0.8482305
51	0x3f0edb1f	0.558031
52	0xbe0a2220	-0.1348958
53	0x3f52440d	0.8213509
54	0x3f141507	0.57844585
55	0xbf185cef	-0.59516805
56	0xbf4003bb	-0.7500569
57	0xbf48a1f9	-0.7837215
58	0xbf18bd78	-0.59664106
59	0xbf4d4655	-0.80185443
60	0x3e86236e	0.26198906
61	0x3f3e6dea	0.74386466
62	0xbf3dee5e	-0.74191844
63	0xbf0eec5e	-0.5582942
64	0xbf78e693	-0.9722683
65	0xbf494a86	-0.7862934
66	0xbf57c82f	-0.8428983
67	0x3e83dedd	0.2575597
68	0xbf03c141	-0.5146676
69	0xbf0ac31c	-0.54203963
70	0x3e06ac56	0.13151678
71	0x3f37bdef	0.7177419
72	0x3ea94ca4	0.33066285
73	0x3ee0f9df	0.43940637
74	0x3ec9787c	0.39349735
75	0x3e03c6ca	0.12868801
76	0xbf16529b	-0.58719796
77	0xbec86b3e	-0.3914432
78	0xbef6932f	-0.48159167
79	0xbf2cab41	-0.6744881
80	0x3db7e419	0.08979053
81	0x3dd193a0	0.10233235
82	0x3f099c76	0.53754365
83	0x3eb4b99d	0.35297862
84	0x3e5d9f61	0.2164283
85	0xbf29192c	-0.66054034
86	0xbf1f0c60	-0.6212826
87	0x3e336a8e	0.17521116
88	0x3d094a76	0.033518277
89	0x3e6f18d7	0.2334932
90	0x3e240dca	0.16020885
91	0x3e0c3326	0.13691387
92	0xbf63573e	-0.88804996
93	0xbe02e25c	-0.12781662
94	0x3eaac56c	0.33353746
95	0xbf6bd260	-0.9211788
96	0xbf3025f3	-0.68807906
97	0xbf0febea	-0.5621935
98	0xbf1f5dae	-0.6225232
99	0xbeb30968	-0.34968114
100	0x3e072ac2	0.13199905
101	0xbf029f3c	-0.5102422
102	0xbebe8798	-0.37212825
103	0xbf453691	-0.77036387
104	0xbf2337f3	-0.63757247
105	0xbd857de9	-0.06518156
106	0x3e680707	0.2265893
107	0x3ec46cca	0.3836425
108	0x3e996b7b	0.29964814
109	0x3ec1e460	0.3786955
110	0xbf35e78b	-0.7105643
111	0xbed61a9e	-0.41817182
112	0x3dae620a	0.08514793
113	0xbd6c10e1	-0.057633284
114	0x3ee0079d	0.43755808
115	0x3dc10740	0.09425211
116	0x3e4c31df	0.199409
117	0xbf28d0b0	-0.6594343
118	0x3e5b9e57	0.2144712
119	0x3e8d9fa8	0.2766087
120	0xbf243932	-0.64149773
121	0xbf401b6e	-0.75041854
122	0xbf4ad696	-0.7923368
123	0xbf19d09d	-0.60083944
124	0xbf2b056b	-0.6680514
125	0x3f279afb	0.65470856
126	0xbf4f7e84	-0.8105242
127	0x3f0cb1af	0.54958624
128	0xbf63e474	-0.89020467
129	0xbf1b1273	-0.60575026
130	0x3ef50824	0.47857773
131	0x3efd0519	0.49417952
132	0x3d2f3a25	0.04278006
133	0x3e73db3f	0.23814104
134	0x3f43173b	0.7620732
135	0xbec39a73	-0.38203773
136	0xbf7059e5	-0.9388717
137	0x3f4e1ec2	0.8051568
138	0x3ec104bf	0.37698933
139	0x3f3bef97	0.7341246
140	0x3f385ce0	0.72016716
141	0x3ebfc233	0.3745285
142	0x3ebce328	0.36892056
143	0x3ece5c50	0.40304804
144	0x3d4c9da5	0.04995503
145	0x3dc93251	0.0982405
146	0xbf58db13	-0.8470928
147	0xbf1783c4	-0.59185433
148	0xbeb29f22	-0.34887034
149	0x3cc08b88	0.023504034
150	0x3ebc4800	0.36773682
151	0xbed5d6d8	-0.41765475
152	0x3cb75829	0.022380905
153	0xbf28bcaa	-0.6591288
154	0xbebdc65d	-0.37065402
155	0x3ea91125	0.33020893
156	0x3eb01cc5	0.3439695
157	0x3ed657f7	0.41863987
158	0x3f0ad287	0.5422749
159	0x3eb6c1a5	0.35694614
160	0xbf28b4c2	-0.65900815
161	0xbef2ba50	-0.4740777
162	0x3efef4a9	0.49796036
163	0xbd1b9a18	-0.037988752
164	0x3ef6679d	0.48125926
165	0x3ebdca17	0.37068245
166	0x3f0206a0	0.5079136
167	0xbf07976d	-0.5296543
168	0x3ea20ff7	0.31652805
169	0x3ebcc933	0.36872253
170	0xbe84c5aa	-0.25932056
171	0xbf16552a	-0.587237
172	0xbf2b266c	-0.668555
173	0xbe9f31eb	-0.31092772
174	0xbdfd76de	-0.12376188
175	0x3e70cbec	0.2351529
176	0xbf2a9412	-0.6663219
177	0xbf4d0084	-0.8007891
178	0xbeca6b44	-0.39534962
179	0xbefd17bb	-0.49432167
180	0x3dd47f5e	0.10375856
181	0xbca0923f	-0.019600986
182	0x3f5bd6c4	0.8587458
183	0x3e0e06f5	0.13869841
184	0x3e12fc1b	0.14353983
185	0xbef447b3	-0.47710952
186	0xbebe4991	-0.37165502
187	0xbd83c4a8	-0.064339936
188	0x3d5fba51	0.054621045
189	0x3e98b44d	0.2982506
190	0x3e346a66	0.17618713
191	0x3e3983ae	0.18116638
192	0xbf4844f6	-0.78230226
193	0x3e306ef8	0.17229831
194	0x3f1eac4d	0.6198166
195	0xbfd9cb32	-1.7015135
196	0xbefc8cd7	-0.49326202
197	0xbee76f52	-0.45202118
198	0xbf183545	-0.5945628
199	0xbf0cd6eb	-0.5501544
200	0x3e05e617	0.13076054
201	0xbf193cda	-0.5985848
202	0xbf3a5790	-0.7278986
203	0xbef9a3b2	-0.48757702
204	0xbf1d1d11	-0.61372477
205	0xbcb2b674	-0.021815516
206	0xbc975f4a	-0.018478055
207	0x3f8ff364	1.1246152
208	0x3e612663	0.219873
209	0x3ed50eb3	0.41612777
210	0xbed0c09d	-0.40771952
211	0xbf1d3f4d	-0.61424714
212	0x3e7c9400	0.24665833
213	0xbe05d006	-0.13067636
214	0x3e0d6633	0.13808517
215	0xbd74c68a	-0.059759654
216	0x3dc09ac4	0.09404519
217	0xbf56f07e	-0.8396071
218	0x3d974acc	0.07387313
219	0x3f2d7080	0.67749786
220	0xbf8fb46a	-1.1226933
221	0xbf041515	-0.5159467
222	0xbeb7d908	-0.3590777
223	0xbf0469dc	-0.5172403
224	0xbf04287e	-0.51624286
225	0x3ef58a77	0.47957203
226	0xbf45e792	-0.77306473
227	0xbe7e0a00	-0.24808502
228	0xbf792975	-0.97328883
229	0xbf03decb	-0.5151183
230	0x3ec2f311	0.3807607
231	0x3eb2ffea	0.34960872
232	0x3d3dbe1f	0.04632389
233	0x3ee628a5	0.44952884
234	0x3f4e71ef	0.806426
235	0xbf04ab14	-0.51823545
236	0xbf625574	-0.8841164
237	0x3ec2e25f	0.38063332
238	0x3cc16552	0.023607884
239	0x3f375acd	0.71622926
240	0x3ea23d3b	0.3168734
241	0x3f3253fa	0.6965939
242	0xbe1c7433	-0.15278701
243	0x3ed61cc5	0.41818824
244	0xbd0caaa6	-0.03434243
245	0xbec8214c	-0.39087903
246	0xbf6ec6f6	-0.9327234
247	0xbefd98ce	-0.49530643
248	0xbf166944	-0.5875437
249	0xbd9b8f48	-0.07595688
250	0x3d744a92	0.05964143
251	0xbf2d192e	-0.67616546
252	0xbf079284	-0.5295794
253	0xbf3f528b	-0.74735326
254	0xbf09c8d5	-0.5382207
255	0x3e5f8a05	0.21829994

solution_network.2.bias f4 [25]
0	0xbe038b9d	-0.12846227
1	0x3db01291	0.08597291
2	0xbe222653	-0.15834932
3	0xbd1b954e	-0.037984185
4	0xbecead15	-0.40366426
5	0x3e4c20a6	0.1993433
6	0xbe90ea69	-0.2830384
7	0xbd9a895e	-0.07545732
8	0xbe6f833a	-0.23389903
9	0x3d6f0bbd	0.058360804
10	0xbeddcd15	-0.43320528
11	0xbdcc6f7d	-0.09982202
12	0x3eed1dd6	0.46311826
13	0xbd37a44d	-0.044834424
14	0xbedefb76	-0.43551224
15	0x3e29c3c8	0.16578591
16	0x3e9a4267	0.30128786
17	0x3ec936e4	0.3929969
18	0x3bd36efc	0.0064524394
19	0x3dac575b	0.08415099
20	0xbe87dbe4	-0.2653495
21	0x3edd8980	0.43268967
22	0xbe36beb3	-0.17846183
23	0xbe979fbc	-0.29614055
24	0xbe67d9b7	-0.22641645

solution_network.4.weight f4 [25, 25]
0	0xbefd2d59	-0.4944866
1	0x3e498f8a	0.19683662
2	0xbf460fe8	-0.7736802
3	0x3ef51c78	0.47873282
4	0x3f056d2b	0.521197
5	0x3a028aec	0.00049798074
6	0x3ed0d930	0.407907
7	0xbd4c91e1	-0.04994381
8	0x3ecb4b34	0.39705813
9	0x3f016454	0.50543714
10	0x3efd20e9	0.4943917
11	0x3e14f683	0.14547162
12	0xbf16364d	-0.58676606
13	0x3f0d265d	0.5513666
14	0x3f2f983b	0.6859166
15	0xbeab233a	-0.33425313
16	0xbf0ecc0c	-0.557801
17	0xbef4dfb4	-0.47826922
18	0x3e99d0bb	0.3004206
19	0xbef7d5a2	-0.48405176
20	0x3f02a46e	0.5103215
21	0xbe64e9e9	-0.22354855
22	0x3e6ca947	0.23111449
23	0x3f0d16d5	0.55112964
24	0x3f1c0a8b	0.6095359
25	0x3eee83c3	0.465849
26	0xbdcc50e8	-0.09976369
27	0x3f47ab42	0.77995694
28	0xbeb34a3c	-0.35017574
29	0xbea252be	-0.31703752
30	0xbe242a87	-0.16031848
31	0xbdd87786	-0.10569672
32	0xbd37b05f	-0.044845935
33	0xbe67b7af	-0.22628663
34	0xbe9c01dc	-0.3047017
35	0xbf165f91	-0.5873957
36	0xbe282753	-0.16421251
37	0x3f1f125e	0.621374
38	0xbeb9c6b8	-0.36284423
39	0xbf0f00b9	-0.5586048
40	0x3efdff57	0.4960887
41	0x3eac0e1b	0.33604512
42	0x3eeb57b2	0.45965344
43	0xbe7dc726	-0.24783
44	0x3eb2bdeb	0.3491052
45	0xbef82748	-0.4846747
46	0x3f04a072	0.5180732
47	0xbe818b00	-0.2530136
48	0xbda78e60	-0.08181453
49	0xbf05bb58	-0.5223899
50	0xbf1ff6a4	-0.6248572
51	0x3f0b8d5d	0.5451258
52	0xbee28f5f	-0.44250008
53	0x3f01016a	0.5039278
54	0x3eef7a04	0.46772778
55	0xbe28b456	-0.16475043
56	0x3eb8e271	0.3611026
57	0x3ed0bd63	0.4076949
58	0x3eef2456	0.4670741
59	0x3dba324b	0.09091624
60	0x3f3b9b54	0.73283887
61	0x3f10bc19	0.56537014
62	0xbf597c16	-0.84954965
63	0x3d6eb5f6	0.058279
64	0x3edb1838	0.42791915
65	0xbf4a0f3b	-0.7892949
66	0xbf078182	-0.5293199
67	0xbf1b87ff	-0.6075439
68	0x3f0dc7b1	0.5538283
69	0xbe82ea46	-0.2556936
70	0x3f2cf336	0.6755861
71	0xbf20c266	-0.6279663
72	0x3e803a7a	0.25044614
73	0x3e8ecc9c	0.2789048
74	0x3deae13f	0.114687435
75	0xbf08d93a	-0.5345646
76	0x3e8e6d41	0.2781773
77	0xbf1334b9	-0.57502323
78	0x3e5db026	0.21649227
79	0x3f00daa8	0.5033364
80	0x3e7faeb4	0.24968988
81	0x3de8eace	0.113729104
82	0x3e3fb089	0.18719687
83	0x3ebd241b	0.3694161
84	0x3ed2ef0a	0.41197997
85	0x3ec305f9	0.38090494
86	0x3e8a4169	0.2700303
87	0xbf0ad7e3	-0.54235667
88	0x3e484970	0.19559264
89	0x3eec2ce2	0.46127993
90	0xbed48d04	-0.41513836
91	0xbeb42c00	-0.3518982
92	0xbeae01ad	-0.33985654
93	0x3e825da5	0.2546207
94	0xbf0a068d	-0.53916246
95	0x3e5e7541	0.21724416
96	0xbedf0c82	-0.4356423
97	0x3eee51b3	0.46546707
98	0x3ea351d7	0.31898376
99	0x3e3b874d	0.18313332
100	0xbec768cd	-0.38947144
101	0x3ee386f9	0.44438913
102	0xbf0b63de	-0.5444926
103	0x3e93866e	0.288135
104	0x3e80bbf4	0.25143397
105	0xbe9408cc	-0.2891296
106	0xbdd3bbce	-0.10338555
107	0x3e7f6f16	0.2494472
108	0x3f0641a2	0.524439
109	0x3e2131ff	0.15741728
110	0x3f0f74c8	0.5603757
111	0x3f0a9074	0.5412667
112	0xbf6014be	-0.8753165
113	0x3da3fa3d	0.080067135
114	0x3ed79632	0.42106777
115	0xbf574108	-0.84083605
116	0xbf3f59f0	-0.7474661
117	0xbf44bfd4	-0.76855206
118	0x3ef1a763	0.47198018
119	0xbe900d4c	-0.28135145
120	0x3e968977	0.29401752
121	0xbf0e94d0	-0.5569582
122	0x3e63d694	0.22249824
123	0x3d1a7eb0	0.037718475
124	0x3e04ac2b	0.12956302
125	0x3edc9938	0.43085647
126	0xbed5afc4	-0.4173566
127	0x3f16c25a	0.58890307
128	0xbe9155d1	-0.28385785
129	0xbe6258ca	-0.22104183
130	0x3e21af0c	0.15789431
131	0xbe56a5f9	-0.20961751
132	0xbf070360	-0.52739525
133	0xbea19a94	-0.31563246
134	0x3d7bddfc	0.061490998
135	0xbef49556	-0.47770184
136	0xbf20d970	-0.62831783
137	0x3f3b8fa5	0.7326606
138	0xbcfa8523	-0.030581063
139	0xbe25715a	-0.16156521
140	0x3f84196d	1.0320259
141	0x3f5d8dbe	0.86544406
142	0x3f72b874	0.94812703
143	0xbe83c30a	-0.2573474
144	0x3e843470	0.25821257
145	0xbf070a7c	-0.5275037
146	0x3f3fc07c	0.7490308
147	0xbeabd687	-0.3356211
148	0xbe4bbc43	-0.19896035
149	0xbe1de938	-0.15420997
150	0x3f07a627	0.52987903
151	0xbf12908a	-0.572518
152	0x3ef9c89f	0.48785874
153	0xbe77c279	-0.24195279
154	0xbe86bf58	-0.2631786
155	0x3ee74e2b	0.45176825
156	0xbe409172	-0.18805483
157	0xbee5eaba	-0.44905645
158	0xbf100040	-0.5625038
159	0x3e194776	0.14968666
160	0xbf2c905d	-0.6740778
161	0xbe87a964	-0.26496422
162	0x3f5af727	0.85533375
163	0xbe558629	-0.2085196
164	0xbf070955	-0.52748615
165	0x3f4eca81	0.80777746
166	0x3f75042c	0.9570949
167	0x3f5753f0	0.84112453
168	0xbf113288	-0.5671773
169	0x3e3c2142	0.18372062
170	0xbeece742	-0.46270186
171	0x3f5a7510	0.85334873
172	0xbf059f1b	-0.521959
173	0x3db80aca	0.08986433
174	0xbe8b4561	-0.2720137
175	0xbf28ecdb	-0.6598641
176	0x3dc49ce5	0.09600238
177	0xbf439f07	-0.7641453
178	0x3eb432bf	0.35194966
179	0x3f06da23	0.526766
180	0x3e06a4e9	0.13148846
181	0x3ebd8476	0.37015122
182	0x3ed31fe9	0.41235283
183	0x3e7b4c7b	0.24540894
184	0x3e126a42	0.14298347
185	0x3f05fe79	0.5234142
186	0x3e035dea	0.12828794
187	0xbf31ea4d	-0.6949814
188	0x3ee4328e	0.4456982
189	0x3f0a8f59	0.5412498
190	0xbee68592	-0.4502378
191	0xbebb8cbc	-0.3663081
192	0xbf0f6b6a	-0.56023276
193	0x3f0ceff9	0.5505367
194	0xbf09f8e0	-0.5389538
195	0x3f07d55b	0.5305993
196	0xbf015c43	-0.50531405
197	0x3e96ef9b	0.2947968
198	0x3eb2b3ef	0.34902903
199	0x3eae0efc	0.33995807
200	0xbf29556d	-0.66145974
201	0x3e9749ee	0.2954859
202	0xbec832de	-0.3910131
203	0x3f051373	0.519828
204	0x3ebf097a	0.37311918
205	0x3eb38868	0.35065007
206	0x3f099df8	0.53756666
207	0x3e8318be	0.25604814
208	0x3eb8391e	0.35981077
209	0x3e8d056b	0.27543196
210	0x3e84ff75	0.25976148
211	0x3ec0bc01	0.37643436
212	0xbed0df85	-0.40795532
213	0x3e88afae	0.26696533
214	0x3eab217a	0.33423978
215	0xbec238c5	-0.37933937
216	0xbe98b976	-0.29828995
217	0xbe1278fe	-0.14303967
218	0x3e06ddb3	0.13170509
219	0xbea91cc7	-0.33029768
220	0x3ed1b902	0.40961462
221	0xbe5cdd19	-0.21568717
222	0x3e386db1	0.18010594
223	0x3e87b9fa	0.26509076
224	0x3f1fbf9e	0.6240176
225	0xbf0ddb9a	-0.5541321
226	0xbe7a4511	-0.24440409
227	0xbf3ca040	-0.7368202
228	0xbd7af776	-0.061271153
229	0xbddc59a0	-0.10759282
230	0x3d8ed74b	0.069746576
231	0x3e2ed8c2	0.17074874
232	0xbec71cf8	-0.3888929
233	0xbeb10d3e	-0.34580415
234	0x3e8b7265	0.27235714
235	0xbee601ae	-0.44923156
236	0xbe911c79	-0.28342035
237	0x3ee2e9ef	0.44319102
238	0x3da3d443	0.0799947
239	0xbdb319ff	-0.08745193
240	0x3ec420b5	0.38306203
241	0x3e9c3a4c	0.30513227
242	0x3f11ac4d	0.56903535
243	0xbed08ec7	-0.4073393
244	0xbeff6cff	-0.49887845
245	0xbee524b6	-0.4475457
246	0x3ef47dd3	0.47752246
247	0xbeaf0c24	-0.3418895
248	0x3cbb14db	0.022837093
249	0xbd03c740	-0.03217244
250	0xbf077301	-0.5290986
251	0x3d3fd7e7	0.04683676
252	0xbf048046	-0.5175823
253	0x3e780545	0.2422076
254	0x3ee6c8f0	0.45075178
255	0x3da9607b	0.08270355

solution_network.4.bias f4 [25]
0	0xbc756961	-0.014978738
1	0x3e8f4eae	0.27989715
2	0xbe2fa978	-0.17154491
3	0x3df9dc19	0.122001834
4	0xbe4eff42	-0.2021456
5	0x3e79522c	0.24347752
6	0x3e56bdff	0.20970915
7	0x3d1606ac	0.036627457
8	0xbc899fc3	-0.016799813
9	0x3da7aa7f	0.081868164
10	0x3dba4d6f	0.090968005
11	0x3e0fade0	0.14031172
12	0x3ea2656b	0.31718
13	0xbd0f368f	-0.03496414
14	0xbea9fa0f	-0.33198592
15	0x3d8bf2c5	0.06833414
16	0xbe3020b4	-0.17199975
17	0xbd2f6c31	-0.04282779
18	0x3eff6005	0.49877945
19	0xbe41426f	-0.18872999
20	0xbe89d64f	-0.26921317
21	0x3d98f998	0.07469481
22	0xbedb1209	-0.42787197
23	0xbea8d32b	-0.32973608
24	0xbd4a994c	-0.0494626

solution_network.6.weight f4 [25, 25]
0	0x3e514672	0.20437029
1	0xbe7c2ca8	-0.2462641
2	0x3ddbb0b6	0.10727064
3	0x3e0d5bdf	0.13804577
4	0x3d428c05	0.047496814
5	0xbeb02a9f	-0.34407517
6	0xbf070f04	-0.5275729
7	0x3ebf8c2c	0.3741163
8	0x3e45e1df	0.19324444
9	0xbdd152da	-0.10220881
10	0x3d990869	0.07472307
11	0xbe853d63	-0.26023397
12	0xbee66aa9	-0.4500325
13	0x3e1f3666	0.15548095
14	0x3eb74b8a	0.3579982
15	0xbddb6127	-0.1071189
16	0x3ec44e74	0.38341105
17	0xbf02d94d	-0.51112825
18	0xbe95e603	-0.29277048
19	0x3d8d6f16	0.069059536
20	0x3e5e6297	0.21717297
21	0x3e2562a9	0.16150917
22	0x3ca52781	0.020160438
23	0x3e84d598	0.2594421
24	0xbea01494	-0.312657
25	0xbe4ae513	-0.19813947
26	0x3f02e813	0.5113537
27	0xbeb223b5	-0.34792867
28	0xbe5f94a3	-0.21834044
29	0xbf02423b	-0.5088231
30	0x3f0acb2a	0.54216254
31	0x3f3583a0	0.7090397
32	0xbe230991	-0.15921618
33	0xbdc51e03	-0.09624865
34	0x3eb2ef0e	0.3494801
35	0x3d051998	0.03249511
36	0x3e95ec37	0.2928178
37	0x3f41c0e1	0.75684935
38	0xbe2e3600	-0.17012787
39	0xbeccb2c8	-0.3998015
40	0x3f0bb6cb	0.54575795
41	0xbe8b92ca	-0.2726043
42	0x3e248f8c	0.16070384
43	0x3f5159a6	0.8177742
44	0xbe5134c3	-0.20430283
45	0xbe340788	-0.17580998
46	0xbd75b49a	-0.05998669
47	0x3e47002e	0.19433662
48	0xbe4c8fb2	-0.1997669
49	0x3f0afd91	0.5429316
50	0xbe8670e6	-0.2625801
51	0x3e998af3	0.29988822
52	0xbf07302e	-0.5280789
53	0xbd924d66	-0.07143669
54	0xbf0ec743	-0.557728
55	0x3f0962af	0.53666204
56	0x3f450b09	0.76969963
57	0xbe75403a	-0.23950282
58	0xbe165f43	-0.14684777
59	0x3ec8aed6	0.3919589
60	0xbeba1f2d	-0.3635191
61	0x3eee3e6f	0.46532008
62	0x3f4f1d2b	0.8090388
63	0xbe8450eb	-0.25842986
64	0xbebb5936	-0.365915
65	0x3f580706	0.84385717
66	0xbe9df8df	-0.30853936
67	0x3e8f386e	0.2797274
68	0x3f70df4f	0.9409074
69	0xbe7d4d45	-0.24736507
70	0xbe69c036	-0.22827229
71	0xbe8da601	-0.27665713
72	0x3eb8943b	0.3605059
73	0xbea418ca	-0.32050163
74	0x3f2bd816	0.67126596
75	0x3e88bbe7	0.26705858
76	0xbf227e8d	-0.6347435
77	0x3e593024	0.2120977
78	0x3e98e268	0.29860234
79	0x3e8b4aee	0.27205604
80	0xbe31c381	-0.17359735
81	0xbed92041	-0.4240742
82	0x3f028be7	0.50994724
83	0x3c817eec	0.015807591
84	0x3de914d7	0.11380928
85	0x3ee7b40b	0.4525455
86	0x3d9dd130	0.07705915
87	0xbddcdecd	-0.107846834
88	0x3eb45e1d	0.35228053
89	0x3d984ad7	0.074361496
90	0x3ddec902	0.10878183
91	0x3db57264	0.08859709
92	0xbf69c230	-0.9131193
93	0x3d5ddd14	0.054165915
94	0x3e6461c1	0.22302915
95	0x3ef394da	0.47574502
96	0x3ece27ab	0.4026464
97	0x3e982f57	0.29723617
98	0x3d51d79a	0.051231004
99	0x3d63003c	0.055420145
100	0x3efdf716	0.49602574
101	0xbf87553a	-1.0572884
102	0x3f97cd8c	1.1859603
103	0x3f4b13f2	0.7932731
104	0x3f63a279	0.8891979
105	0xbf2da76e	-0.678336
106	0xbf83d2ed	-1.0298744
107	0x3f2af845	0.6678508
108	0x3ed51d62	0.4162398
109	0xbe01335d	-0.1261725
110	0x3edfd5d7	0.43717834
111	0xbe89ae45	-0.2689077
112	0xbf788f28	-0.9709344
113	0x3f73f6c8	0.95298433
114	0x3f2c0f37	0.67210716
115	0xbf927b5f	-1.14439
116	0x3f86832b	1.0508779
117	0xbe803db6	-0.25047082
118	0xbf3e593e	-0.7435492
119	0x3eba48f8	0.36383796
120	0x3f103dc0	0.56344223
121	0x3e9d35d7	0.3070514
122	0xbebe9593	-0.3722349
123	0x3f3ff0b2	0.74976647
124	0xbf7938f7	-0.97352546
125	0x3db2fe09	0.087398596
126	0x3e47cea8	0.19512427
127	0xbeb4ca93	-0.35310802
128	0xbe6711b4	-0.22565347
129	0xbec4b57f	-0.3841972
130	0x3ed5f06b	0.41784987
131	0x3f270885	0.65247375
132	0xbe04dfce	-0.12976
133	0xbe234245	-0.15943249
134	0x3e803d38	0.25046706
135	0xbd4c2e30	-0.049848735
136	0x3e48da49	0.19614519
137	0x3f337921	0.70106703
138	0xbe165279	-0.14679898
139	0xbe6682b5	-0.22510798
140	0x3ed1ec55	0.4100062
141	0xbe7f9b05	-0.24961479
142	0xbea6c772	-0.3257404
143	0x3f0e7011	0.5563975
144	0xbe5e73aa	-0.2172381
145	0xbdd10c47	-0.1020742
146	0x3e11df9f	0.14245461
147	0x3e998987	0.29987738
148	0xbdc591c2	-0.09646942
149	0x3f14ab69	0.5807405
150	0xbd194309	-0.037417445
151	0x3f279718	0.65464926
152	0xbeee0f24	-0.46495926
153	0xbe9b030f	-0.3027577
154	0xbe29683d	-0.1654367
155	0x3ebedc56	0.37277478
156	0x3f4e6714	0.80626035
157	0xbe6665d2	-0.22499779
158	0xbe0943e1	-0.134048
159	0x3e900bca	0.28133994
160	0xbe86541e	-0.2623605
161	0x3ea190bc	0.31555736
162	0x3f328565	0.69734794
163	0xbee48ccf	-0.44638678
164	0xbe3eb53b	-0.18623821
165	0x3eb9d4e8	0.36295247
166	0xbef024a1	-0.46902946
167	0x3cf0ad62	0.02937955
168	0x3f3b4207	0.73147625
169	0xbe2b7b61	-0.16746284
170	0xbdfd5762	-0.123701826
171	0xbeb392d2	-0.35072953
172	0x3e9b13e1	0.30288604
173	0xbe278912	-0.16360882
174	0x3ec545cf	0.38529822
175	0xbe180485	-0.14845474
176	0x3ee9d531	0.45670465
177	0xbef2d5bc	-0.4742869
178	0xbd82aaf3	-0.06380262
179	0xbef316a1	-0.47478202
180	0x3ea30f37	0.31847546
181	0x3f40756c	0.7517917
182	0xbe9710ab	-0.29504904
183	0xbdfabefd	-0.122434594
184	0x3e875426	0.26431388
185	0xbea1f4fc	-0.3163222
186	0x3e63815a	0.22217312
187	0x3f38eb71	0.72234255
188	0xbe10c282	-0.14136699
189	0xbdbbaef7	-0.09164231
190	0x3f175802	0.59118664
191	0xbec3fa03	-0.3827668
192	0xbe8a26f3	-0.2698284
193	0x3f24b9b9	0.6434589
194	0xbcb0bd0b	-0.021574518
195	0xbe10c35b	-0.14137022
196	0xbe985322	-0.29750925
197	0x3e9a7bcc	0.30172575
198	0xba0d1ea7	-0.00053832907
199	0x3ef04b41	0.46932414
200	0xbd65bab8	-0.056086272
201	0x3f034c50	0.5128832
202	0xbe201ea4	-0.15636688
203	0xbe773632	-0.24141768
204	0xbea6aa2d	-0.3255171
205	0x3f53fb08	0.8280492
206	0x3f71c5df	0.9444255
207	0xbda74e00	-0.08169174
208	0xbde0972e	-0.10966335
209	0x3e3149d7	0.17313324
210	0x3d73b1e1	0.05949581
211	0x3ebc6252	0.36793762
212	0x3f5780f8	0.84181166
213	0xbef669be	-0.4812755
214	0xbece628e	-0.40309566
215	0x3f1f2157	0.6216025
216	0xbe9eeb03	-0.31038675
217	0x3ef21758	0.47283435
218	0x3f3fd0a8	0.7492776
219	0xbdd21192	-0.102572575
220	0xbeb3a12e	-0.35083908
221	0xbea203fa	-0.3164366
222	0x3e9b3831	0.30316308
223	0xbe96c927	-0.29450342
224	0x3f25b48d	0.64728624
225	0x3d844563	0.06458547
226	0x3e777fab	0.24169795
227	0xbe8d91b2	-0.2765022
228	0xbde7902e	-0.11306797
229	0xbf146b79	-0.5797649
230	0x3f0c6f45	0.54857284
231	0x3efbf002	0.4920655
232	0xbcdb1177	-0.026741726
233	0xbd8918d4	-0.06694189
234	0x3eeef643	0.46672258
235	0xbd738eb3	-0.05946226
236	0x3ec0dc4f	0.37668082
237	0x3f5ae4bf	0.8550529
238	0xbe2b3d5c	-0.16722625
239	0xbdfca8ef	-0.12336909
240	0x3f2d6bea	0.6774279
241	0xbead21f4	-0.33814967
242	0xbc1a3773	-0.009412634
243	0x3f409992	0.7523433
244	0xbd3aabf4	-0.045574144
245	0xbe359de3	-0.1773601
246	0xbe182af8	-0.14860141
247	0x3f1a4330	0.6025877
248	0xbda0ae6e	-0.0784577
249	0x3f45dfd3	0.77294654
250	0xbedd4b35	-0.4322144
251	0x3edf1dff	0.43577573
252	0xbe6b134e	-0.22956583
253	0xbd9100d5	-0.07080237
254	0xbe95faf2	-0.2929302
255	0x3ed5b099	0.41736296

solution_network.6.bias f4 [25]
0	0xbdb0e504	-0.08637431
1	0x3e79ae83	0.24382977
2	0x3e356475	0.17714103
3	0x3dccc9fe	0.099994645
4	0xbb57aaed	-0.0032908276
5	0x3d82d9f7	0.0638923
6	0x3e2a1bf0	0.1661222
7	0x3de92292	0.11383547
8	0xbccb5514	-0.024820842
9	0x3e484e95	0.19561227
10	0x3e02a42d	0.1275794
11	0x3ddc2679	0.107495256
12	0x3de16ba7	0.11006861
13	0x3e18e429	0.14930786
14	0xbe0b57ab	-0.13607661
15	0xbdba0bcb	-0.090842806
16	0xbe34257b	-0.17592423
17	0xbda4c819	-0.08045978
18	0x3d866eb2	0.06564082
19	0xbd8f6a9a	-0.070027545
20	0xbbd5355c	-0.006506605
21	0x3dd2662a	0.102733925
22	0x3d1274b6	0.035755835
23	0xbe1889c0	-0.14896297
24	0x3d133bad	0.035945583

solution_network.8.weight f4 [25, 25]
0	0xbe45326a	-0.19257513
1	0xbd297cb5	-0.041378696
2	0x3d2b8ab8	0.04188034
3	0x3e2e4e54	0.17022067
4	0xbdca6ffb	-0.0988464
5	0xbc604291	-0.013687746
6	0x3d065d89	0.032804046
7	0x3ddfb0cc	0.10922393
8	0x3e1245e6	0.14284477
9	0x3d80284b	0.06257685
10	0x3e20dc83	0.15709119
11	0x3e6833f9	0.22676076
12	0xbcc08a57	-0.023503466
13	0xbdc15ccd	-0.094415285
14	0x3e346e73	0.17620258
15	0x3df29b96	0.11846082
16	0x3e2f4ab0	0.17118335
17	0x3e33799d	0.1752686
18	0xbd55e3fe	-0.052219383
19	0xbe896f16	-0.26842564
20	0x3d92091a	0.07130642
21	0x3caef188	0.021355405
22	0xbdd96351	-0.10614646
23	0x3e08d89e	0.13363883
24	0x3dc7f417	0.09763353
25	0x3dfd423e	0.1236615
26	0xbeeee332	-0.4665771
27	0xbe85f516	-0.26163548
28	0xbcd177d3	-0.025569832
29	0x3ecbd2a6	0.3980915
30	0xbea75508	-0.3268206
31	0xbe3ece34	-0.18633348
32	0xbe5ab61d	-0.21358533
33	0xbed966ce	-0.42461246
34	0xbecf6685	-0.40507904
35	0x3e83e561	0.2576094
36	0x3e2a9a35	0.16660388
37	0xbe11c364	-0.14234692
38	0x3e33450f	0.17506813
39	0xbd52057f	-0.051274773
40	0xbe54b093	-0.20770483
41	0xbe49595e	-0.19662997
42	0x3d110da7	0.03541341
43	0x3d84cb79	0.06484122
44	0x3e0b4324	0.13599831
45	0x3e6208ba	0.22073641
46	0xbd4be01a	-0.049774267
47	0x3c26dd65	0.0101846205
48	0xbd8c0e80	-0.06838703
49	0x3dec7c00	0.115470886
50	0x3eab4ad1	0.33455518
51	0xbf44f0a1	-0.7692967
52	0xbf3cd715	-0.7376569
53	0x3e33c838	0.17556846
54	0x3f0d1e9c	0.5512483
55	0xbf0bc890	-0.5460291
56	0xbf2b8a3e	-0.67007816
57	0xbed574b7	-0.4169061
58	0xbf4399a9	-0.7640634
59	0xbea83fd0	-0.32861185
60	0xbec6a093	-0.38794383
61	0x3e754731	0.23952939
62	0xbee1bc75	-0.44089094
63	0xbc38416d	-0.0112460675
64	0x3dbf8a94	0.093526036
65	0xbf3acd0b	-0.7296912
66	0x3d957049	0.07296807
67	0x3e52a071	0.20569016
68	0x3e572580	0.21010399
69	0xbdde68dc	-0.10859844
70	0x3e8cde6c	0.27513444
71	0xbf2ec070	-0.68262386
72	0x3ed73839	0.42035082
73	0xbdaa6c1a	-0.083214
74	0x3e5a6c3f	0.21330355
75	0xbe9966b8	-0.2996118
76	0x3ee866c5	0.45390907
77	0x3f4fd328	0.81181574
78	0xbdcc087e	-0.09962557
79	0xbf0f2481	-0.55915076
80	0x3ef80060	0.48437786
81	0x3f177e17	0.5917677
82	0x3f30eab4	0.6910813
83	0x3f14abd9	0.5807472
84	0x3f317f44	0.69334817
85	0x3e8dfbf0	0.27731276
86	0xbe97cb8e	-0.29647487
87	0x3f00949e	0.5022677
88	0xbe63c06e	-0.22241375
89	0xbe788d7c	-0.24272722
90	0x3f20029b	0.62503976
91	0xbe7a495a	-0.24442044
92	0xbe6f4782	-0.23367122
93	0xbdfdd48d	-0.123940565
94	0x3e31927b	0.17341034
95	0xbe9f6f87	-0.31139776
96	0x3f5077f3	0.8143303
97	0xbf218f55	-0.6310933
98	0xbdbd8659	-0.092541404
99	0xbe0b124d	-0.135812
100	0xbea03673	-0.3129154
101	0x3f165c2b	0.5873439
102	0x3f0e49c2	0.55581295
103	0xbe611eee	-0.21984455
104	0xbf243709	-0.64146477
105	0x3f0e805c	0.5566461
106	0x3f54bfc4	0.8310511
107	0x3eb719f6	0.35761994
108	0x3f43f6ee	0.7654866
109	0x3e6a23a3	0.22865157
110	0x3e54a14d	0.20764656
111	0xbe4cd6c9	-0.20003809
112	0x3edb73b0	0.428617
113	0xbe9cfde4	-0.30662453
114	0x3c9fae51	0.0194923
115	0x3f47adf2	0.77999794
116	0xbc8cdd3e	-0.01719534
117	0xbdf7427d	-0.120732285
118	0xbe9865af	-0.29765078
119	0x3dd8c96f	0.105852954
120	0xbb72b05b	-0.0037031386
121	0x3f149047	0.5803265
122	0xbf095c37	-0.53656334
123	0xbe354ff0	-0.17706275
124	0xbe6508a8	-0.22366583
125	0xbe416e7f	-0.18889807
126	0x3e9a07aa	0.30083972
127	0x3d437fe2	0.04772938
128	0x3d887486	0.0666285
129	0xbdc24fef	-0.094879024
130	0xbcf0d0d6	-0.029396456
131	0xbdbfc88f	-0.093644254
132	0xbc96c9fd	-0.018406862
133	0x3e005a45	0.12534435
134	0x3e2c9ec7	0.16857444
135	0xbd4cca43	-0.04999758
136	0x3c4c0796	0.0124529805
137	0x3defa109	0.11700637
138	0xbe6c0292	-0.23047855
139	0xbe857643	-0.2606679
140	0x3e000dcd	0.12505265
141	0xbe08b3b6	-0.13349804
142	0xbe42f4dc	-0.19038719
143	0xbe74e447	-0.23915206
144	0x3e484698	0.1955818
145	0xbe6b228b	-0.22962396
146	0x3e5522e2	0.20814088
147	0xbe55653d	-0.208394
148	0xbe1191e8	-0.14215815
149	0x3d35c48a	0.044376887
150	0xbdbd175b	-0.0923297
151	0x3e930fb7	0.28722927
152	0x3ee4f8ce	0.44721073
153	0xbdd038c5	-0.10167078
154	0xbf0f0e5d	-0.5588129
155	0x3db67a39	0.08910031
156	0x3f0fcc38	0.5617099
157	0x3f075f16	0.52879465
158	0x3eb1c86a	0.34723216
159	0x3edb098e	0.42780727
160	0x3ea30c8b	0.31845507
161	0xbe81089c	-0.2520188
162	0x3e941d24	0.28928483
163	0xbe6b91f0	-0.2300489
164	0x3d505094	0.050858095
165	0x3e90dec5	0.2829496
166	0xbe84d119	-0.2594078
167	0x3d08e2b4	0.033419326
168	0x3d9b92f6	0.0759639
169	0x3e92866a	0.28618175
170	0x3d2e7ccd	0.042599488
171	0x3f021c7f	0.5082473
172	0xbe7cd59f	-0.24690865
173	0xbe302114	-0.17200118
174	0x3d3461f0	0.044038713
175	0xbdf43b23	-0.11925342
176	0x3c8b20c1	0.016983392
177	0xbd602017	-0.054718103
178	0xbdce7e60	-0.10082698
179	0xbe734b29	-0.2375914
180	0xbdfe1b44	-0.12407544
181	0xbc005e83	-0.007835033
182	0xbd427c09	-0.04748157
183	0x3e390d4e	0.18071482
184	0x3de46247	0.111515574
185	0xbdc82e03	-0.09774401
186	0xbe843664	-0.25822747
187	0x3e69d43e	0.2283487
188	0xbe9df199	-0.30848387
189	0xbe9d70b7	-0.30750057
190	0x3d41ad58	0.047284454
191	0xbbce7cf7	-0.006301518
192	0xbeb685be	-0.35648912
193	0xbda4af52	-0.08041252
194	0x3ea4dd18	0.3219993
195	0xbd8d3a38	-0.0689587
196	0x3e08b3e7	0.13349877
197	0xbdad1804	-0.08451846
198	0xbe17ddd5	-0.14830716
199	0xbe044444	-0.12916666
200	0x3e0e0132	0.13867643
201	0xbe4326df	-0.19057797
202	0x3e4f1446	0.20222577
203	0x3e1678cf	0.14694522
204	0xbe9c8c1c	-0.30575645
205	0x3e447d72	0.19188479
206	0x3e5c636b	0.215223
207	0x3dba2434	0.090889364
208	0x3e2dee5e	0.16985461
209	0x3dbd0d22	0.092310205
210	0xbf03458a	-0.51277983
211	0xbdb486bf	-0.08814763
212	0xbe9e16d5	-0.30876794
213	0x3d3ef3d6	0.04661926
214	0x3e0f83f9	0.14015187
215	0xbdaffe84	-0.08593467
216	0x3da08409	0.07837684
217	0x3e661364	0.22468334
218	0x3e918be2	0.28427035
219	0xbf1d023b	-0.6133153
220	0xbd2dfba8	-0.042476326
221	0x3e2cfed5	0.16894086
222	0x3da432cd	0.08017502
223	0x3d3175dc	0.04332529
224	0x3e4ab4c6	0.19795522
225	0x3ca1be53	0.019744074
226	0x3d3f9b78	0.046779126
227	0xbe3a5467	-0.1819626
228	0x3e886cec	0.266456
229	0xbd782c5d	-0.060589183
230	0xbbfb3f44	-0.007667454
231	0xbe2a7d06	-0.16649255
232	0x3dea9847	0.11454826
233	0xbe3067d8	-0.17227113
234	0x3e5b74c3	0.2143126
235	0xbee1a240	-0.440691
236	0x3e147f28	0.14501631
237	0xbe8f3434	-0.27969515
238	0x3e60d6a2	0.21956876
239	0xbbe58bbf	-0.0070051844
240	0x3e33d816	0.17562899
241	0x3e8746b4	0.2642113
242	0x3e9092b9	0.2823694
243	0x3ecae3e9	0.39627007
244	0xbed100b8	-0.4082086
245	0x3db9eecb	0.09078749
246	0x3d65de14	0.056119993
247	0xbd6dc425	-0.058048386
248	0xbcb1b559	-0.021692919
249	0x3e42ae64	0.19011837
250	0xbe29e39d	-0.16590734
251	0xbb74baca	-0.003734278
252	0xbdfdadf1	-0.12386692
253	0xbc95b39d	-0.018274123
254	0x3e852c5d	0.2601041
255	0x3e09db2b	0.13462512

solution_network.8.bias f4 [25]
0	0xbc83f975	-0.016110161
1	0x3dd7eb0d	0.10542879
2	0xbdfa6fa8	-0.12228328
3	0xbdf961b7	-0.12176841
4	0xbe23e610	-0.1600573
5	0xbdcc73c6	-0.099830195
6	0x3e1b0c4c	0.1514141
7	0x3dec4acf	0.11537706
8	0xbe0a4606	-0.13503274
9	0x3d31bf36	0.043395244
10	0x3ddfb9f8	0.109241426
11	0xbd6a68c5	-0.057228822
12	0xbe07f93e	-0.13278672
13	0x3d8c6192	0.068545476
14	0xbdd8296e	-0.10554777
15	0x3e8765fc	0.26444995
16	0xbc514f86	-0.0127753075
17	0xbe00e172	-0.12586
18	0x3d74bc4a	0.05974988
19	0x3d2a075a	0.041510917
20	0x3d45555c	0.04817711
21	0xbe13c1ca	-0.14429393
22	0xbd148946	-0.036263727
23	0x3c8efd2f	0.017454712
24	0xbde234b7	-0.11045211

solution_network.10.weight f4 [25, 25]
0	0xbe547b2c	-0.20750111
1	0xbd85a549	-0.06525666
2	0x3deae44a	0.11469324
3	0xbd7212ec	-0.059100077
4	0xbe5a2a02	-0.21305087
5	0xbe0f1aee	-0.13975117
6	0xbd89e9f7	-0.067340784
7	0x3d529bc1	0.05141807
8	0x3dc574df	0.09641432
9	0x3da11395	0.07865063
10	0x3db9a7e8	0.09065229
11	0xbe60a9cb	-0.21939771
12	0xbe693ea6	-0.22777805
13	0x3d74149a	0.05958996
14	0x3e1cc7d5	0.15310605
15	0x3e09e08f	0.13464569
16	0x3dcf9de8	0.1013754
17	0x3dd641c7	0.10461765
18	0xbc9b6378	-0.018968329
19	0x3dbf97ed	0.093551494
20	0x3a8bb169	0.0010657731
21	0x3c89ef0a	0.016837616
22	0x3cb1ab4c	0.021688126
23	0xbe650621	-0.22365619
24	0x3e122ddf	0.14275311
25	0x3d1293e3	0.035785567
26	0xbe08b785	-0.13351257
27	0x3d4ae907	0.04953864
28	0xbd8bbffe	-0.06823729
29	0x3e6768e4	0.22598606
30	0xbbe68e2d	-0.0070359916
31	0xbdad1e7a	-0.084530786
32	0xbc60c46e	-0.0137187075
33	0x3db5358a	0.088481024
34	0x3c546c0f	0.012965216
35	0x3e7121a9	0.23547997
36	0xbd3bac63	-0.045818698
37	0x3dec3c0b	0.1153489
38	0xbe354c4e	-0.17704889
39	0xbddb1b14	-0.10698524
40	0xbe199221	-0.1499715
41	0xbdabe2b0	-0.083928466
42	0x3d9a1db8	0.075252
43	0xbd587887	-0.05284932
44	0xbdd039fa	-0.10167308
45	0x3e7c9710	0.24667001
46	0xbd23f654	-0.04002984
47	0x3c9bba0d	0.019009614
48	0x3deea219	0.116520114
49	0x3def7290	0.11691773
50	0x3d222588	0.039586574
51	0xbd1aaade	-0.037760608
52	0xbc2b3448	-0.010449477
53	0x3d9f1a9f	0.077687494
54	0x3e4a631c	0.1976437
55	0xbbab45a9	-0.00522681
56	0x3e53504b	0.20636098
57	0xbe0c439b	-0.13697664
58	0xbe1188b0	-0.14212298
59	0xbd6d031a	-0.057864286
60	0x3e844f18	0.25841594
61	0xbb843f4d	-0.0040358664
62	0xbd57a104	-0.05264379
63	0x3e64611c	0.2230267
64	0x3e222d09	0.15837492
65	0xbdb61d36	-0.0889229
66	0xbdabe585	-0.08393387
67	0x3d1f9f7b	0.03897045
68	0xbd8dc3d7	-0.06922119
69	0xbdb3142f	-0.08744084
70	0x3e4a37ae	0.19747803
71	0x39d7206c	0.00041032152
72	0x3e0a01a5	0.1347719
73	0xbd20c73a	-0.039252497
74	0x3e52748c	0.20552272
75	0x3b822791	0.003972002
76	0x3e0b9a2c	0.1363303
77	0xbea70c3e	-0.32626528
78	0x3e90beb5	0.28270498
79	0x3da512fe	0.08060263
80	0x3de4795a	0.111559585
81	0x3c8cd051	0.017189177
82	0x3d7f8008	0.06237796
83	0x3cb7e250	0.022446781
84	0xbe2a151f	-0.1660962
85	0x3ba23a6a	0.004950811
86	0xbe31b10b	-0.17352693
87	0x3e2bf688	0.16793263
88	0x3d2ae8fa	0.04172609
89	0x3ddfd2be	0.10928868
90	0xbdfa61d1	-0.12225688
91	0xba53ca90	-0.00080791954
92	0xbc855ed6	-0.016280573
93	0xbd5076d7	-0.050894585
94	0x3e1377b6	0.14401135
95	0x3dba89c5	0.09108309
96	0xbe29e87d	-0.16592593
97	0xbead89de	-0.33894247
98	0xbde38c74	-0.11110774
99	0xbdc82388	-0.09772402
100	0x3df6e1f3	0.12054815
101	0x3d7c61ab	0.06161658
102	0xbea5ad2c	-0.32358682
103	0x3d3e2c56	0.046429
104	0x3e114bba	0.14189044
105	0x3e03f0d2	0.12884834
106	0x3da5ed29	0.08101875
107	0xbd0a911b	-0.03382979
108	0x3da8371b	0.082136355
109	0x3db6ce18	0.08926028
110	0x3d962e6a	0.073330715
111	0x3db81d1b	0.089899264
112	0x3e6f1622	0.23348287
113	0xbd6df0ff	-0.05809116
114	0x3e5bd6b3	0.2146862
115	0x3cca3aba	0.024686206
116	0xbd43f90f	-0.047844943
117	0x3dbaafe9	0.091155834
118	0x3dd5c487	0.10437875
119	0x3e0e3fbb	0.13891499
120	0x3e3b5e13	0.18297605
121	0xbddbb407	-0.10727697
122	0xbe34c407	-0.17652903
123	0xbe20e98a	-0.15714088
124	0xbdd4446b	-0.10364612
125	0xbd4ed952	-0.05050022
126	0x3e9320a0	0.28735828
127	0x3f1a14cd	0.6018799
128	0xbecd3f56	-0.40087384
129	0xbee14c3f	-0.44003484
130	0xbe265100	-0.16241837
131	0xbea8b365	-0.32949367
132	0xbe093323	-0.13398413
133	0xbdce6682	-0.100781456
134	0xbe4407e8	-0.19143641
135	0x3e388f2b	0.18023364
136	0xbbdff8b8	-0.0068350695
137	0xbe3ae065	-0.18249662
138	0xbe57ed56	-0.2108663
139	0xbcb40970	-0.021977156
140	0x3e5be6ad	0.21474715
141	0x3a8f94f0	0.0010954421
142	0xbd53366f	-0.051565584
143	0x3e981d56	0.29709882
144	0x3e45130e	0.1924555
145	0x3c8b2dea	0.016989667
146	0xbe52e118	-0.20593679
147	0x3f1a4c11	0.6027232
148	0xbe350951	-0.17679335
149	0x3e2ec139	0.17065896
150	0xbe51f2b6	-0.20502743
151	0xbdba6c68	-0.09102708
152	0xbe7c5ae1	-0.24644043
153	0xbe0579ca	-0.1303474
154	0x3e355a62	0.1771026
155	0x3df937bc	0.121688336
156	0xbd917806	-0.07102971
157	0x3e3e9b26	0.18613872
158	0xbe48fc6f	-0.19627546
159	0xbe883dab	-0.2660955
160	0xbd97b855	-0.074082054
161	0xbe263d11	-0.16234232
162	0x3da1b9b5	0.07896749
163	0xbde1fe0e	-0.11034785
164	0xbe07b866	-0.13253936
165	0xbc651e9e	-0.0139843505
166	0xbe1efb1e	-0.15525481
167	0x3de92eb8	0.11385864
168	0x3ccf86b7	0.025332792
169	0x3e310ac3	0.17289262
170	0x3e802a12	0.25032097
171	0xbce841ad	-0.02835163
172	0x3d05fb96	0.032710634
173	0x3da14b55	0.078756966
174	0xbe15f49f	-0.14644097
175	0x3de2e7ad	0.11079345
176	0x3e6ce425	0.23133905
177	0x3dbac8d4	0.09120336
178	0xbd63872b	-0.055548828
179	0xbd4b5eb2	-0.049650855
180	0x3e3257c9	0.174163
181	0x3d0c40aa	0.034241356
182	0x3e82e09d	0.2556199
183	0xbe11e67d	-0.1424808
184	0xbdf1a79a	-0.117995456
185	0x3e50799f	0.20358895
186	0xbd6dc206	-0.058046363
187	0x3e65dc33	0.2244728
188	0x3db3aba2	0.08772971
189	0x3b3695d2	0.0027860296
190	0xbdc8c361	-0.098028906
191	0x3e40db91	0.18833758
192	0x3e602d95	0.21892388
193	0x3e403d0c	0.18773288
194	0x3e66b23c	0.22528929
195	0x3e350d2f	0.1768081
196	0xbc025f30	-0.007957265
197	0x3df86e4f	0.12130415
198	0xbad575c1	-0.0016285704
199	0x3e0f9807	0.14022838
200	0xbdff3004	-0.1246033
201	0x3e181c87	0.14854632
202	0x3e7fc2c7	0.24976645
203	0xbe7aa66e	-0.2447755
204	0xbd174ea9	-0.03694025
205	0xbe186468	-0.14882052
206	0xbe7c8bf8	-0.24662769
207	0xba44dbd6	-0.0007509565
208	0x3da16d87	0.07882219
209	0x3deb2dac	0.114833206
210	0xbde4d6a3	-0.11173751
211	0x3dc065f0	0.09394443
212	0xbddc29c9	-0.107501574
213	0x3d012a79	0.031534646
214	0xbc2a666b	-0.010400395
215	0xbe086044	-0.13317972
216	0x3db7a1a2	0.08966376
217	0x3dceb3ac	0.100928634
218	0xbe468b60	-0.19389105
219	0x3cd89b00	0.026441097
220	0x3b46b4d3	0.0030320182
221	0xbd7bf16c	-0.061509535
222	0xbd1e7b3e	-0.03869175
223	0xbd9b7ff2	-0.07592763
224	0x3df35393	0.11881175
225	0xbd73126b	-0.059343737
226	0xbe56b414	-0.20967132
227	0x3e1e3a74	0.15451986
228	0xbdaea237	-0.08527034
229	0xbe5921e4	-0.21204334
230	0x3d54bfc1	0.051940683
231	0xbe29b609	-0.16573347
232	0xbe59c11a	-0.21265069
233	0xbd9a7a15	-0.075428165
234	0x3e188990	0.14896226
235	0x3b064aac	0.0020491285
236	0xbe0468b2	-0.12930563
237	0xbe63bdbf	-0.22240351
238	0xbda42135	-0.08014146
239	0xbe429922	-0.19003728
240	0xbe9b40ae	-0.30322784
241	0x3c888649	0.016665595
242	0xbde6c351	-0.112677224
243	0x3d9bb840	0.07603502
244	0xbe7de4f7	-0.24794374
245	0xbe55033c	-0.20802015
246	0x3e13d458	0.14436471
247	0xbe01c07b	-0.12671082
248	0xbd48d5ba	-0.04903195
249	0xbe4c4bd7	-0.19950806
250	0x3df71887	0.12065225
251	0x3df5e4f7	0.12006562
252	0x3e6f36c5	0.23360737
253	0x3dc2729c	0.09494516
254	0xbdb342f0	-0.08753002
255	0xbd262a43	-0.040567648

solution_network.10.bias f4 [25]
0	0xbe4d0be0	-0.20024061
1	0xbcc25136	-0.023720365
2	0x3e4411ed	0.19147463
3	0xbd14987b	-0.03627823
4	0xbe1e9164	-0.1548515
5	0x3e2ac31c	0.16675991
6	0xbe077d7c	-0.13231462
7	0x3e145c97	0.14488445
8	0xbe66387c	-0.22482485
9	0xbe4844a2	-0.19557431
10	0xbd8ab1e7	-0.067722134
11	0x3d9aaa66	0.07552032
12	0x3e110262	0.14161065
13	0xbb1a2aed	-0.002352412
14	0xbe11830b	-0.14210145
15	0xbda73e0a	-0.0816613
16	0xbd966c7c	-0.073449105
17	0xbd4454b9	-0.04793236
18	0xbe4f2ed2	-0.20232704
19	0xbc6c7c40	-0.01443392
20	0xbe6bf833	-0.23043899
21	0x3b812526	0.003941196
22	0xbd5389c5	-0.05164506
23	0xbd2a4d24	-0.041577473
24	0x3d9fe50c	0.07807359

solution_network.12.weight f4 [3, 25]
0	0xbe1fdccb	-0.1561157
1	0x3e15e35a	0.14637509
2	0x3e474885	0.19461258
3	0x3e336627	0.17519437
4	0x3e4252a2	0.18976834
5	0xbe44d96e	-0.19223568
6	0xbc31f559	-0.010861718
7	0x3e51c78f	0.20486282
8	0xbd933f80	-0.07189846
9	0xbe4150f0	-0.18878531
10	0x3a496ec4	0.0007684047
11	0xbd025e7d	-0.031828392
12	0x3e661ad0	0.22471166
13	0xbda476a6	-0.08030443
14	0x3daffafb	0.085927926
15	0x3cc7ec59	0.024404692
16	0xbd03985a	-0.032127716
17	0xbe1ebabd	-0.15500923
18	0xbe142675	-0.14467795
19	0xbe145fbb	-0.14489643
20	0x3d23b191	0.039964262
21	0x3d90974d	0.07060108
22	0x3db38d3c	0.08767173
23	0x3e072f35	0.13201602
24	0x3e02f77f	0.12789725
25	0xbe1a5562	-0.15071633
26	0x3d32db44	0.04366614
27	0x3dd09014	0.10183731
28	0xbdf8b5bc	-0.12144038
29	0x3ca2eecf	0.019889263
30	0x3e77fb30	0.24216914
31	0xbde612e1	-0.112340696
32	0x3db53b38	0.08849186
33	0x3deaa1b9	0.114566274
34	0xbc6c127e	-0.014408706
35	0x3e189856	0.14901862
36	0xbdecaee7	-0.115567975
37	0x3e1258d4	0.14291698
38	0xbd5f8f82	-0.05458022
39	0x3cf462f1	0.029832335
40	0xbdeb382e	-0.11485325
41	0x3d9216d7	0.071332626
42	0x3e5b15b2	0.21394995
43	0x3e07754f	0.13228343
44	0x3e60ae7b	0.21941559
45	0xbe36d9b2	-0.17856482
46	0x3e14b5d8	0.14522493
47	0x3bcfaa40	0.006337434
48	0xbe5a0504	-0.21290976
49	0xbc78d5d3	-0.015187698
50	0x3c32cd86	0.010913258
51	0xbdc5bb4e	-0.09654866
52	0xbde882e1	-0.11353088
53	0xbd9a532f	-0.07535397
54	0xbd9a478d	-0.075331785
55	0xbe128072	-0.1430681
56	0xbe2c5270	-0.16828322
57	0xbde8dea3	-0.113705896
58	0x3d7c435f	0.061587688
59	0x3e395763	0.18099742
60	0x3d8611ba	0.0654635
61	0x3e6abede	0.22924373
62	0x3e52fd41	0.20604421
63	0xbc798cfb	-0.015231366
64	0x3e6e5231	0.23273541
65	0xbd99243d	-0.07477615
66	0x3def0aaa	0.11671956
67	0x3e52c1ac	0.20581692
68	0x3c8c23ba	0.01710688
69	0x3e49b10c	0.19696444
70	0x3d38a0f1	0.04507536
71	0x3d5a2cd2	0.0532654
72	0xbe4347dc	-0.19070381
73	0x3d14688b	0.036232512
74	0x3e6bfd83	0.23045926

solution_network.12.bias f4 [3]
0	0x3c417a84	0.011808995
1	0x3e1ede20	0.15514421
2	0x3def4833	0.11683693
