results/case_0/noise_0.003/3_5_25_10/model.pth (torch, 4316 bytes, 10 tensors)

solution_network.0.weight f4 [5, 2]
0.5719476 -0.6506125 -0.05995482 -0.51591855 -0.6163074 -0.32242548 0.17721316 -0.6848155
0.67598766 0.57249355
00000000: 286b 123f 8a8e 26bf 2f93 75bd 3d13 04bf
00000010: 52c6 1dbf f414 a5be 5e77 353e 1250 2fbf
00000020: 870d 2d3f f08e 123f

solution_network.0.bias f4 [5]
-0.023380626 0.38250616 -0.31211746 -0.47169402 -0.53422
00000000: ba88 bfbc d9d7 c33e dccd 9fbe e181 f1be
00000010: a4c2 08bf

solution_network.2.weight f4 [5, 5]
-0.039307054 -0.25759202 0.046265554 0.07140787 -0.3447568 -0.44581985 0.06716594 -0.20446502
0.33793762 0.08526851 -0.41037983 0.003454672 0.021658912 -0.017517794 0.32235676 -0.39690042
-0.27614692 0.13131852 0.4461786 -0.35976297 0.12806883 0.16510245 0.19926341 -0.33127138
-0.07982365
00000000: 6f00 21bd 1ae3 83be f380 3d3d 4a3e 923d
00000010: f783 b0be 8042 e4be 4c8e 893d 475f 51be
00000020: 2906 ad3e 42a1 ae3d 4e1d d2be c767 623b
00000030: 086e b13c 7a81 8fbc f20b a53e 8836 cbbe
00000040: 2163 8dbe 5d78 063e 8571 e43e da32 b8be
00000050: 7a24 033e 9e10 293e b50b 4c3e 679c a9be
00000060: 957a a3bd

solution_network.2.bias f4 [5]
0.23252344 -0.2995328 0.15406688 -0.2568545 0.22438857
00000000: a01a 6e3e 5d5c 99be b5c3 1d3e 6f82 83be
00000010: 1ec6 653e

solution_network.4.weight f4 [5, 5]
-0.3413773 0.44253802 0.31956148 0.28984925 -0.2991978 0.31797865 0.01788826 0.13795502
0.31424144 -0.060081627 -0.35630178 0.29408586 -0.21588428 0.069717504 -0.27431232 -0.24431548
-0.051861074 0.07311209 0.13591935 0.40386793 -0.35583466 0.12827025 -0.15189157 -0.22987255
0.13994457
00000000: 01c9 aebe 5894 e23e 909d a33e 1f67 943e
00000010: 7430 99be 19ce a23e 668a 923c 1544 0d3e
00000020: 41e4 a03e 2718 76bd 306d b6be 6c92 963e
00000030: c510 5dbe 0dc8 8e3d aa72 8cbe d62d 7abe
00000040: 476c 54bd cbbb 953d 712e 0b3e c7c7 ce3e
00000050: f62f b6be 4759 033e 7789 1bbe b663 6bbe
00000060: a14d 0f3e

solution_network.4.bias f4 [5]
0.2807725 0.08327448 0.065712705 -0.3207822 0.08943757
00000000: 6ac1 8f3e d08b aa3d 6294 863d 913d a4be
00000010: 0b2b b73d

solution_network.6.weight f4 [5, 5]
0.32005355 0.19517507 -0.32740247 0.29763234 0.2366926 0.13794655 -0.02251249 0.2509486
0.090199396 0.40932116 0.3275632 0.022265177 -0.053554904 -0.22999208 -0.3596654 0.020226846
-0.14996499 -0.04817167 -0.21854055 -0.429619 0.42695013 -0.36144784 0.042568523 -0.038480718
-0.43876502
00000000: 0fde a33e f9db 473e 4ca1 a7be 4463 983e
00000010: 8c5f 723e dc41 0d3e 1d6c b8bc 567c 803e
00000020: 76ba b83d 8b92 d13e 5db6 a73e 7665 b63c
00000030: 635c 5bbd 0b83 6bbe 1026 b8be c5b2 a53c
00000040: 6c90 19be a84f 45bd 18c9 5fbe 06f7 dbbe
00000050: 3599 da3e b10f b9be 555c 2e3d f59d 1dbd
00000060: cfa5 e0be

solution_network.6.bias f4 [5]
-0.11024514 -0.40154704 -0.3447638 0.39339587 0.18557128
00000000: 34c8 e1bd 9397 cdbe e184 b0be 2f6b c93e
00000010: 6606 3e3e

solution_network.8.weight f4 [3, 5]
-0.020594751 -0.13527428 0.106145285 0.29532498 -0.24198169 -0.36760914 -0.3385996 0.2165822
-0.33047158 -0.32042035 -0.2766845 -0.31235594 0.1509382 0.04248882 0.1986797
00000000: 53b6 a8bc 5785 0abe b362 d93d d634 973e
00000010: 0cca 77be 4437 bcbe ed5c adbe b9c7 5d3e
00000020: 9233 a9be 230e a4be 97a9 8dbe 1eed 9fbe
00000030: 8b8f 1a3e c208 2e3d b172 4b3e

solution_network.8.bias f4 [3]
0.43846557 -0.21642348 0.31475732
00000000: 8f7e e03e 1e9e 5dbe df27 a13e
