results/case_0/noise_0.003/3_5_25_10/model.pth (torch, 4316 bytes, 10 tensors)

solution_network.0.weight f4 [5, 2]
000000 78 6a da be 04 1b 58 3e c8 d8 d5 bd 21 63 e1 be
       -0.42659354 0.21104056 -0.10441738 -0.44020942
000010 7a d4 a4 3e 30 38 b6 bc 7a ea 56 3d 0c e7 0b bf
       0.32193357 -0.02224359 0.052469708 -0.54649425
000020 cd 10 14 3f 92 ad 2f 3f
       0.57838136 0.6862422

solution_network.0.bias f4 [5]
000000 73 70 83 3e 78 57 89 bd aa 19 6e 3e 8d 77 1f be
       0.2567173 -0.067061365 0.23251978 -0.15572949
000010 97 ce c3 be
       -0.38243553

solution_network.2.weight f4 [5, 5]
000000 f2 79 b2 3e 79 7e 86 3e 82 41 a3 bd 0c 10 e6 bd
       0.34858662 0.26268366 -0.07971479 -0.112335294
000010 80 5a 16 3e 5a b4 dd 3e 86 ed 54 3d 8d d3 68 be
       0.1468296 0.4330166 0.051984333 -0.2273695
000020 11 cd 91 3e 0b 9a bb 3e e1 aa 87 3e 9e 2a 0c 3e
       0.28476766 0.36640963 0.26497558 0.13688132
000030 3e 3c bb bc 8e 78 80 be 30 cf 2a 3e 06 14 6c 3e
       -0.022855874 -0.25091976 0.16680598 0.23054513
000040 1e 7e 6e be c6 b2 c7 bd f5 0f a6 3d 78 88 b6 be
       -0.23290297 -0.09750895 0.08108512 -0.35650992
000050 6f 47 a4 bd f6 6d c7 3e 88 2d 4d be 1f 69 a0 be
       -0.080214374 0.3895108 -0.200369 -0.313302
000060 4f a5 8e 3d
       0.06965124

solution_network.2.bias f4 [5]
000000 d0 66 1d be 8b c1 8f bd b0 a7 87 3e 98 0a 99 be
       -0.15371251 -0.07019337 0.26495123 -0.29890895
000010 5a 22 98 3e
       0.29713708

solution_network.4.weight f4 [5, 5]
000000 15 9f 3f bd b9 c6 c2 bd 7f 1e 7c be c6 e4 97 be
       -0.04678257 -0.095105596 -0.24621008 -0.29666728
000010 fc 21 16 3d d0 5c 5e 3e 07 b2 0f 3e ae b1 e2 3e
       0.036653504 0.21715093 0.14032756 0.44276184
000020 28 5d e4 3d e1 12 ce 3d 11 99 b4 3e 46 47 e1 3e
       0.11150581 0.100621946 0.3527303 0.4399969
000030 cd 8e 99 3e 75 e5 07 3e d8 ca f6 bd 45 0a 45 3e
       0.2999176 0.13271125 -0.12050408 0.19242199
000040 ea 46 75 be bb f6 24 be 42 75 bd 3e 27 7b 92 3e
       -0.23952833 -0.16109745 0.37003523 0.28609583
000050 2f 6d ad be 4d ec 59 3e 88 84 21 3d 68 a3 d8 bc
       -0.33872363 0.21281548 0.039433032 -0.026445106
000060 7b cc da 3e
       0.4273413

solution_network.4.bias f4 [5]
000000 60 77 9e be 1d 88 14 3d 07 a9 cb 3d 83 5f 5f 3e
       -0.3095045 0.03626262 0.09944349 0.21813779
000010 44 d6 96 be
       -0.29460347

solution_network.6.weight f4 [5, 5]
000000 0b 49 9d 3d 86 cd 02 be 2c 3e 45 3e 2e c1 46 be
       0.076799475 -0.12773713 0.19261998 -0.1940963
000010 9e 8c d5 3e fe 80 bb 3e d6 52 04 be c8 1b a3 3e
       0.41708845 0.3662185 -0.12922224 0.31857133
000020 ee 33 7a 3e f2 7c 8d be ea da aa be 56 6f db be
       0.24433872 -0.27634388 -0.33370143 -0.4285838
000030 c6 2e ae 3b f0 48 d5 3e de 21 94 3d bb 1a 6a 3e
       0.0053156344 0.4165721 0.07233022 0.2286176
000040 27 2c 23 3e 9f a1 e3 3e 12 04 b2 bc 5d 63 64 3e
       0.15934812 0.44459245 -0.021730457 0.22303529
000050 f5 6c 88 be ef fe 83 3e bd 92 d7 3e 2f b3 8d be
       -0.26645628 0.25780436 0.4210414 -0.2767577
000060 df 61 a2 bd
       -0.07928824

solution_network.6.bias f4 [5]
000000 1c 2a d2 3e 6e 93 a3 3d e8 33 a2 be 7c d6 d5 3e
       0.41047752 0.07987104 -0.31680226 0.417652
000010 83 ee 53 3e
       0.20696454

solution_network.8.weight f4 [3, 5]
000000 b3 38 cf 3d a5 5a 20 be 42 04 b8 be 1a 10 0a be
       0.101182364 -0.15659578 -0.35940748 -0.13482705
000010 84 00 81 3d 45 8a 45 3e 84 da 73 3e a8 0d 6d bd
       0.062989265 0.19291027 0.23813826 -0.05787435
000020 4d 19 f7 3d 8b 84 74 bd 64 23 b3 3e 7d e4 59 3e
       0.120653726 -0.059696715 0.34987938 0.21278568
000030 d5 b2 c5 be 5c 30 d9 3e a6 b6 5f 3e
       -0.38613 0.42419708 0.21847019

solution_network.8.bias f4 [3]
000000 31 6f e6 3d 47 f1 85 3e 2b 50 50 be
       0.11251677 0.26160643 -0.20343082
