results/case_0/noise_0.030/5_25_50_60/model.pth (torch, 21206 bytes, 16 tensors)

log_Ng_params f4 [2]
-0.5455254 0.023744011
00000000: 8da7 0bbf cd82 c23c

log_Tg_params f4 [2]
-0.014245565 -0.0117914835
00000000: 3b66 69bc 1131 41bc

solution_network.0.weight f4 [25, 1]
-0.57680166 -0.588088 0.042437546 0.33756107 -0.10536717 -9.314832 5.2285457 0.43285817
0.4502927 0.4731921 0.08182572 -0.045368556 -0.09476865 0.100436226 0.13955909 0.08433031
7.2665415 0.070795015 -0.09560376 -0.10044501 0.042993866 4.2970815 0.105015345 -13.449828
-0.08982098
00000000: 46a9 13bf ef8c 16bf fed2 2d3d ced4 ac3e
00000010: beca d7bd 8d09 15c1 3f50 a740 969f dd3e
00000020: c48c e63e 3c46 f23e 3e94 a73d 61d4 39bd
00000030: 1116 c2bd 82b1 cd3d 94e8 0e3e 5fb5 ac3d
00000040: 8287 e840 fafc 903d e7cb c3bd 1db6 cdbd
00000050: 561a 303d b181 8940 4912 d73d 7f32 57c1
00000060: 10f4 b7bd

solution_network.0.bias f4 [25]
1.6825054 5.91809 -2.5778716 -1.6566823 2.2727935 -0.47339267 0.51748693 0.10007326
-0.44604787 -0.71695113 -1.3468171 -0.52935576 1.6616423 -2.0805807 -4.7316103 -1.6686537
0.54773533 -1.632676 1.8602612 2.097729 -2.6716175 0.33419532 -2.3720734 -0.41622213
1.3548058
00000000: 565c d73f fe60 bd40 d9fb 24c0 2a0e d4bf
00000010: 7375 1140 8660 f2be 067a 043f 36f3 cc3d
00000020: 6360 e4be 1c8a 37bf 8164 acbf dc83 07bf
00000030: b2b0 d43f 3c28 05c0 5a69 97c0 7296 d5bf
00000040: 6238 0c3f 87fb d0bf 0a1d ee3f 3141 0640
00000050: c8fb 2ac0 a61b ab3e 0dd0 17c0 111b d5be
00000060: 476a ad3f

solution_network.2.weight f4 [25, 25]
0.9406203 1.0832783 -0.47531277 0.061101276 1.0957676 0.9136288 0.049170192 0.20647833
-0.21003805 -0.2212982 -0.07787045 -0.023999713 1.2495092 -0.45370916 -0.32687375 -0.065444104
0.14302455 0.026339889 1.2282354 0.9491668 -0.53871673 0.07793056 -0.62344813 0.9313926
0.9162818 1.2617278 3.2568026 -0.40359434 -0.2550571 0.8723899 0.5910267 -0.28750354
-0.37968424 -0.34847105 -0.31135577 -0.47176322 -0.39147416 0.6730737 -0.26868337 -1.0617192
-0.46813953 -0.20409586 -0.3964366 0.5950768 0.7619572 -0.5229761 -0.4145634 -0.4061212
0.8777765 0.22645062 1.2113997 0.60089284 -0.69935524 -0.43140754 0.5811203 1.2915221
-0.47374034 -0.45725834 -0.77883196 -0.7480211 -0.35183862 -0.16862342 0.51400566 -0.44155502
-0.9055392 -0.4729536 -0.39361945 -0.5307075 0.5013306 0.5632713 -0.6211583 -0.42706248
-0.597896 1.417283 0.3346367 1.2580519 0.97425395 -0.35232073 -0.24769694 0.34360063
0.8999024 -0.35628495 -0.44033706 -0.8156098 -0.4938464 -0.4745265 -0.10301655 0.4121456
-0.30828747 -0.7878793 -0.44172934 -0.41630566 -0.30377156 0.49138606 0.5167728 -0.5031812
-0.18784721 -0.5152318 1.0892695 0.34895003 1.6855081 1.6387482 -0.41161767 -0.47685266
0.32321405 0.72781676 -0.13904789 -0.32572472 -0.7516741 -0.4273599 -0.24187042 -0.11992465
0.50448984 -0.43889332 -0.9737496 -0.5105193 -0.12767173 -0.586775 0.60664725 0.71178806
-0.46318302 -0.14065322 -0.7872479 0.8174322 0.4851506 1.6096561 1.1784123 -0.5431736
-0.3606314 0.368295 0.80977595 -0.3994788 -0.59720534 -0.6022789 -0.454157 -0.17303608
-0.29322168 0.68100584 -0.508358 -0.95718163 -0.38157615 -0.15726009 -0.31873032 0.43104813
0.5666265 -0.5156365 -0.32435343 -0.43432206 0.8891999 0.32369912 0.9184937 1.2386972
-0.33106214 0.08472863 0.96339834 0.91839975 0.062664665 0.23964588 -0.41496965 0.003987499
-0.23111403 0.21963778 0.9485093 -0.41562623 -0.4132663 -0.22778118 0.11428228 -0.06203911
0.9917671 1.1805362 -0.50382817 0.046451993 -0.34681997 0.6752119 0.6978422 -0.7408648
-0.75922173 1.2586753 -0.53337526 -1.6025852 -0.7701042 -0.4766696 -0.41978693 -0.24817911
-0.17578071 0.2935308 -0.2601287 -1.4795493 0.22931863 -0.22073601 0.2288684 -0.37099716
0.47521612 -1.7233449 -1.7714832 1.3916501 -0.46638688 0.49582154 -0.98466104 -1.4978278
-2.6460145 -5.2381797 0.91235733 0.5362395 -0.3662775 -0.6836005 0.8660183 0.8296071
1.0718062 0.9854789 0.89357764 0.68385816 -0.34515646 0.8380234 0.6481737 0.84838724
0.6201388 0.90671974 -0.11040191 -0.11449922 0.6795077 0.7140268 0.61869204 -0.60524565
0.15032354 1.7702768 2.1896381 -0.46949464 -0.15167163 0.3972855 0.6426307 -0.242212
-0.17157403 -0.45733246 -0.49522313 -0.35282218 -0.37396878 0.6680697 -0.48584583 -0.8630438
-0.440191 -0.27760905 -0.46324098 0.68200296 0.4627811 -0.56227857 -0.4286209 -0.47308898
0.7918391 0.10579418 -0.69785804 -0.8407125 0.77325004 0.065355286 -1.333668 -0.73682636
00000000: 7ecc 703f dda8 8a3f 325c f3be 5545 7a3d
00000010: 1d42 8c3f 94e3 693f af66 493d 0e6f 533e
00000020: 3714 57be ff9b 62be 8b7a 9fbd 0c9b c4bc
00000030: ebef 9f3f 914c e8be ff5b a7be 8f07 86bd
00000040: 0775 123e c0c6 d73c d136 9d3f 98fc 723f
00000050: 57e9 09bf 0f9a 9f3d 4c9a 1fbf bf6f 6e3f
00000060: 7291 6a3f 4c80 a13f 746f 5040 eba3 cebe
00000070: d896 82be f254 5f3f 874d 173f aa33 93be
00000080: f965 c2be cc6a b2be 066a 9fbe f38a f1be
00000090: 4d6f c8be 8f4e 2c3f de90 89be 6ae6 87bf
000000a0: fcaf efbe 81fe 50be bdf9 cabe f456 183f
000000b0: a10f 433f c3e1 05bf a741 d4be 1eef cfbe
000000c0: f6b5 603f ace2 673e 250f 9b3f 1dd4 193f
000000d0: f208 33bf 73e1 dcbe 4dc4 143f 9950 a53f
000000e0: 188e f2be c41d eabe 8861 47bf 507e 3fbf
000000f0: 3124 b4be 9eab 2cbe e095 033f 8013 e2be
00000100: 6bd1 67bf f926 f2be 7d88 c9be 72dc 07bf
00000110: 3457 003f 8c32 103f 3b04 1fbf efa7 dabe
00000120: b60f 19bf 8869 b53f 8055 ab3e d807 a13f
00000130: b568 793f 6263 b4be 44a4 7dbe 6cec af3e
00000140: 0160 663f fb6a b6be dc73 e1be cecb 50bf
00000150: 6fd9 fcbe 23f5 f2be 57fa d2bd c004 d33e
00000160: dbd7 9dbe 75b2 49bf 592a e2be 0426 d5be
00000170: f287 9bbe f496 fb3e 394b 043f 7cd0 00bf
00000180: 055b 40be 3be6 03bf 2f6d 8b3f 94a9 b23e
00000190: bbbe d73f 80c2 d13f 8dbf d2be 0826 f4be
000001a0: 507c a53e 3352 3a3f 9262 0ebe 64c5 a6be
000001b0: b76d 40bf ebce dabe e1ac 77be 0e9b f5bd
000001c0: 3f26 013f a0b6 e0be a747 79bf 65b1 02bf
000001d0: 61bc 02be e336 16bf 3c4d 1b3f be37 363f
000001e0: 5326 edbe 6607 10be 1489 49bf 3d43 513f
000001f0: a965 f83e 3609 ce3f 37d6 963f 6d0d 0bbf
00000200: aea4 b8be 2a91 bc3e 7a4d 4f3f 7c88 ccbe
00000210: 73e2 18bf f32e 1abf 4487 e8be 5f30 31be
00000220: 2721 96be 6656 2e3f c023 02bf db09 75bf
00000230: f35d c3be ca08 21be 9f30 a3be 57b2 dc3e
00000240: 6f0e 113f c100 04bf a711 a6be 765f debe
00000250: 9ba2 633f e4bb a53e 6722 6b3f a18d 9e3f
00000260: fa80 a9be 3486 ad3d 46a1 763f 3f1c 6b3f
00000270: 5556 803d bb65 753e e776 d4be 91a9 823b
00000280: 28a9 6cbe bae8 603e 81d1 723f f6cc d4be
00000290: a497 d3be 783f 69be d40c ea3d b91c 7ebd
000002a0: 73e4 7d3f cf1b 973f e2fa 00bf 7244 3e3d
000002b0: 6392 b1be b0da 2c3f c9a5 323f 51a9 3dbf
000002c0: 5b5c 42bf 461c a13f 488b 08bf 8321 cdbf
000002d0: 8d25 45bf 0a0e f4be 50ee d6be aa22 7ebe
000002e0: dcff 33be ab49 963e 972f 85be df61 bdbf
000002f0: 81d2 6a3e 9f08 62be 7a5c 6a3e 57f3 bdbe
00000300: 874f f33e 9196 dcbf f6bf e2bf 9721 b23f
00000310: 43ca eebe 52dc fd3e bf12 7cbf d2b8 bfbf
00000320: 4d58 29c0 2b9f a7c0 4090 693f fe46 093f
00000330: b988 bbbe 7100 2fbf 60b3 5d3f 2261 543f
00000340: f230 893f 5848 7c3f 81c1 643f 5411 2f3f
00000350: 59b8 b0be b488 563f b6ee 253f e82f 593f
00000360: 6bc1 1e3f c91e 683f 661a e2bd 917e eabd
00000370: 37f4 2d3f 76ca 363f 9a62 1e3f 61f1 1abf
00000380: 6aee 193e 6e98 e23f 0823 0c40 9a61 f0be
00000390: cf4f 1bbe 0169 cb3e 7283 243f 6c06 78be
000003a0: 1ab1 2fbe 7b27 eabe e38d fdbe 1ca5 b4be
000003b0: d678 bfbe 9e06 2b3f c9c0 f8be 70f0 5cbf
000003c0: b760 e1be c622 8ebe ec2d edbe bf97 2e3f
000003d0: a5f1 ec3e 7df1 0fbf 3374 dbbe b838 f2be
000003e0: f8b5 4a3f 9eaa d83d d3a6 32bf ef38 57bf
000003f0: b7f3 453f fed8 853d a2b5 aabf a7a0 3cbf

solution_network.2.bias f4 [25]
0.33967188 -0.057210144 0.30176544 -0.046226703 -0.088842504 -0.019570556 0.39053342 -0.7674915
0.3620556 -0.0013763491 -0.44991076 0.08722892 0.24845165 -0.013170856 -0.35051292 -0.16899562
0.37727144 0.10610773 0.09422549 0.19700399 0.33364907 0.39496502 0.037885606 -0.57175213
-0.09458072
00000000: 79e9 ad3e 2f55 6abd 0081 9a3e 3658 3dbd
00000010: 0ff3 b5bd 6e52 a0bc fff3 c73e 537a 44bf
00000020: 5a5f b93e 9d66 b4ba b45a e6be 13a5 b23d
00000030: 1c6a 7e3e 93ca 57bc 6e76 b3be 300d 2dbe
00000040: b929 c13e 024f d93d 4bf9 c03d 6abb 493e
00000050: 0dd4 aa3e db38 ca3e f02d 1b3d 595e 12bf
00000060: 89b3 c1bd

solution_network.4.weight f4 [25, 25]
0.58093286 0.8763077 0.67645043 0.43190622 0.8455795 0.7380083 0.54267555 -1.3833925
-0.33173916 0.8452296 -0.7529313 0.70952266 1.0528423 0.7310037 -1.0849133 0.6335947
-0.07729559 0.6989356 0.83088756 0.826169 -0.25059718 0.81931216 0.5828402 -0.30808833
0.014307923 0.7678345 -1.0045575 -1.0462239 -0.77960443 -1.3632687 -1.129993 0.5176681
0.4855888 3.229451 -1.2956913 0.5112516 -1.3825467 -0.6674536 -1.2470955 0.877461
-1.2048149 1.3450332 -0.7954828 -1.3546313 -0.24087697 2.4181566 0.53508973 -1.1493604
0.5171886 0.21355729 0.2271043 0.013954497 -0.9029073 -0.5604443 -0.21339957 -0.5271775
0.13835049 0.62077004 1.307451 -0.18636349 0.46488035 0.039708365 -0.07647724 -0.6410234
0.82772976 0.007217778 2.6227434 -0.115797326 -0.36272705 0.106222436 2.0016081 -0.07605543
-0.9305868 0.37759554 -0.044402074 0.32044667 0.84820276 1.1094562 0.69643164 1.09374
0.75568026 0.6965739 -1.3119357 -0.37890956 0.66486603 -0.9037805 1.3232656 1.2438166
0.82664937 -1.0388144 0.7927793 -0.42405736 1.1798104 1.1596756 0.8513491 -0.41934413
0.41280589 0.6567168 -0.34142807 0.3683449 0.39712784 -0.21768975 -1.3724853 -0.5590377
-0.52324027 -0.6587533 0.33783212 0.67932194 2.6743407 -0.40698454 0.87344444 -0.5893658
-0.4784889 -0.48086601 0.8955901 -0.35639417 1.5980465 -0.21284437 -0.48045683 -0.21817963
2.362305 0.17727216 -1.0335741 0.73348886 -0.30921873 -0.028079906 -0.38099617 -1.2405182
-0.49693537 -0.4520096 -0.51756316 0.16684027 0.6498368 1.7395068 -0.42650682 0.627547
0.018821305 -0.105529666 -0.6756865 0.91293633 0.018275132 2.2301834 -0.40825504 -0.30657342
0.1926735 2.0718434 -0.018057847 -0.72749805 0.7170677 -0.27660316 0.13370384 -0.8254848
-0.67436033 -0.4093267 -0.7097341 -0.6039888 -0.1612007 0.79596645 1.0899384 -0.52253526
0.87476164 -1.3148919 -0.92602545 -0.48125565 1.0338849 -0.8039915 0.94742197 -0.5709252
-0.9621916 -0.6274034 0.8548199 0.05331454 -0.8167796 0.44613603 0.14104912 0.11217554
-1.0367602 -0.852859 -0.3688252 -0.5791989 -0.6273566 0.19386558 0.69800436 1.3527805
-0.95214564 0.9185469 -1.7130674 -0.7200221 -0.7365862 0.89462537 -1.2057475 1.0215824
-0.59785765 -0.8243817 -0.7957067 0.8621614 0.1661277 -0.62112164 0.73031896 0.0133046275
0.76586807 0.7160946 0.8536234 0.6571016 0.54320365 0.6440103 0.7178433 -1.3465185
-0.05079252 0.81774086 -0.54386926 0.9509977 1.3247749 0.74962676 -1.1974146 0.7571498
-0.33548978 1.003288 0.56054467 0.7921619 -0.17082456 0.59800535 0.72059596 -0.32148767
0.12962335 0.6535233 0.82706076 1.0242801 0.4996184 0.7075641 0.7497825 0.75648934
-1.168605 -0.41327038 0.6950533 -0.93862754 1.1604836 1.6144627 0.8618865 -1.1020001
0.85567397 -0.26693344 1.0530139 0.79135746 0.95597845 -0.28562105 0.6018013 0.8572725
-0.20362727 0.19174266 -0.010794206 1.016826 0.811419 0.28601006 0.678772 0.6362812
00000000: 04b8 143f b455 603f db2b 2d3f d022 dd3e
00000010: e677 583f 1dee 3c3f c9ec 0a3f 0113 b1bf
00000020: b7d9 a9be f860 583f 1bc0 40bf 47a3 353f
00000030: 89c3 863f 0f23 3b3f 70de 8abf 4333 223f
00000040: 264d 9ebd 72ed 323f 0cb5 543f d07f 533f
00000050: 464e 80be 71be 513f 0435 153f c1bd 9dbe
00000060: c76b 6a3c cd90 443f 5795 80bf aaea 85bf
00000070: 2894 47bf 977f aebf 9ca3 90bf e685 043f
00000080: 189f f83e 53af 4e40 36d9 a5bf 63e1 023f
00000090: 4af7 b0bf 3dde 2abf d3a0 9fbf 49a1 603f
000000a0: 6037 9abf 0c2a ac3f c3a4 4bbf 8f64 adbf
000000b0: 74a8 76be 14c3 1a40 a4fb 083f 3e1e 93bf
000000c0: 7966 043f c3ae 5a3e 088e 683e 67a1 643c
000000d0: ef24 67bf 4779 0fbf 6b85 5abe 1bf5 06bf
000000e0: c0ab 0d3e c9ea 1e3f 8e5a a73f 12d6 3ebe
000000f0: cc04 ee3e 3da5 223d 19a0 9cbd 1c1a 24bf
00000100: 19e6 533f 1c83 ec3b 07db 2740 2627 edbd
00000110: 5cb7 b9be 268b d93d 591a 0040 f3c2 9bbd
00000120: f03a 6ebf 3454 c13e f3de 35bd 9611 a43e
00000130: d123 593f a902 8e3f 5849 323f acff 8b3f
00000140: 4374 413f ab52 323f 82ed a7bf 6f00 c2be
00000150: a934 2a3f 295e 67bf c460 a93f 6235 9f3f
00000160: 4b9f 533f dff7 84bf 96f3 4a3f 0c1e d9be
00000170: 0704 973f 4070 943f 04f2 593f 46b4 d6be
00000180: 4b5b d33e 981e 283f a9cf aebe b497 bc3e
00000190: 5754 cb3e 10ea 5ebe 99ad afbf 181d 0fbf
000001a0: 13f3 05bf 0ea4 28bf 55f8 ac3e 0be8 2d3f
000001b0: 6628 2b40 4760 d0be 0e9a 5f3f ade0 16bf
000001c0: 7ffc f4be 1234 f6be 6545 653f 4c79 b6be
000001d0: ca8c cc3f e0f3 59be 70fe f5be 7b6a 5fbe
000001e0: 0130 1740 d586 353e 284c 84bf edc5 3b3f
000001f0: eb51 9ebe d507 e6bc ee11 c3be 4dc9 9ebf
00000200: 506e febe cd6d e7be 057f 04bf 2dd8 2a3e
00000210: b45b 263f 29a8 de3f 1a5f dabe eca6 203f
00000220: 232f 9a3c f01f d8bd caf9 2cbf 32b6 693f
00000230: bbb5 953c 53bb 0e40 ce06 d1be 31f7 9cbe
00000240: 344c 453e 1599 0440 0dee 93bc 503d 3abf
00000250: c091 373f ee9e 8dbe a9e9 083e f952 53bf
00000260: e1a2 2cbf 4593 d1be 22b1 35bf 039f 1abf
00000270: cc11 25be 75c4 4b3f 1a83 8b3f dfc4 05bf
00000280: 61f0 5f3f 614e a8bf 0110 6dbf 2467 f6be
00000290: 5756 843f 63d2 4dbf 3f8a 723f 2728 12bf
000002a0: 3052 76bf 829d 20bf 7ad5 5a3f 5960 5a3d
000002b0: 7818 51bf f16b e43e 2e6f 103e 4abc e53d
000002c0: 8fb4 84bf f854 5abf a8d6 bcbe 6146 14bf
000002d0: 719a 20bf b384 463e 6ab0 323f e927 ad3f
000002e0: d1bf 73bf e425 6b3f cb45 dbbf 5e53 38bf
000002f0: ea90 3cbf 2b06 653f ef55 9abf 36c3 823f
00000300: 330d 19bf ae0a 53bf 6fb3 4bbf 9cb6 5c3f
00000310: 611d 2a3e d401 1fbf 2ff6 3a3f a7fb 593c
00000320: ee0f 443f fa51 373f 1087 5a3f cf37 283f
00000330: 650f 0b3f dcdd 243f 94c4 373f b85a acbf
00000340: d10b 50bd 7757 513f 043b 0bbf 9674 733f
00000350: 3992 a93f 8ae7 3f3f e244 99bf 92d4 413f
00000360: 51c5 abbe be6b 803f db7f 0f3f 1fcb 4a3f
00000370: a2ec 2ebe e116 193f fa78 383f 089a a4be
00000380: fcbb 043e 4e4d 273f 41ba 533f 9c1b 833f
00000390: fccd ff3e ec22 353f bff1 3f3f 49a9 413f
000003a0: d994 95bf 2d98 d3be 03ef 313f e549 70bf
000003b0: ba8a 943f b7a6 ce3f 98a4 5c3f 570e 8dbf
000003c0: 730d 5b3f 80ab 88be 29c9 863f 6796 4a3f
000003d0: 01bb 743f ec3c 92be a60f 1a3f 3676 5b3f
000003e0: ab83 50be 3058 443e 2eda 30bc 5b27 823f
000003f0: 28b9 4f3f e96f 923e 00c4 2d3f 53e3 223f

solution_network.4.bias f4 [25]
0.18339995 1.0089658 0.57760096 0.08325327 0.9605484 0.62099826 0.5827635 0.69259834
-0.14394188 -0.17459434 -0.4768207 0.9218203 -0.5299662 0.9768766 -0.050718 -0.6868312
0.29640704 -0.14939015 -0.36309847 0.4365616 0.652325 1.0031437 0.8156317 -0.16133824
0.07157078
00000000: 32cd 3b3e cb25 813f a8dd 133f b180 aa3d
00000010: 80e6 753f bef9 1e3f fd2f 153f 204e 313f
00000020: 8065 13be dcc8 32be d821 f4be 6afc 6b3f
00000030: ddab 07bf 9614 7a3f adbd 4fbd 2bd4 2fbf
00000040: aac2 973e bbf9 18be 0be8 b9be 0185 df3e
00000050: c5fe 263f 0367 803f 3dcd 503f da35 25be
00000060: b393 923d

solution_network.6.weight f4 [25, 25]
-0.45315742 0.7174226 0.6371945 -0.48173726 0.516463 0.4744678 0.9516236 0.97639793
-0.3050934 -0.18007758 -2.6706302 0.7548224 -1.4666631 0.7803136 -0.06693684 -2.34386
-0.36529717 -0.431909 -1.3616201 0.43778542 0.51186687 1.2568564 0.974023 -0.6511892
1.1344446 -2.4529197 0.04128133 0.023530623 -2.0549548 -0.082603276 -0.01589549 0.33099243
0.018206995 -2.3900511 -2.1497002 -1.3181272 0.24351889 -1.648818 0.37876534 -2.4028654
-1.4584373 -2.5821762 -2.1723378 -1.5357407 -0.10580355 0.20213945 0.33761173 0.11444299
-1.9575565 0.82324815 0.5893292 -0.6532081 -0.5530508 0.97178024 -0.55897284 -0.44031864
-0.6849033 -0.55894315 0.62562567 0.8042255 1.4062587 -0.90799904 1.7722704 -0.5485193
0.9804874 1.4234718 0.39256555 0.97066075 1.7937808 -0.51761746 -0.51160187 -0.9645854
-0.69266325 2.0869436 -1.8947556 -0.51631457 0.2669173 0.40172338 -0.7463035 0.5326971
0.23481777 0.5798703 0.36808366 -0.5372447 -0.4341248 -1.074309 0.51729333 -0.960899
0.41597456 -0.46869078 -1.1931639 -0.5133221 -0.28079993 -1.2700874 0.37339225 0.18417896
0.7298845 0.479338 -1.1258028 0.9962838 0.36787483 -0.5737211 -0.5676884 0.86389214
-0.36012587 -0.2791724 -0.5075641 -0.5948565 0.3364434 0.6668986 1.1868477 -0.5827899
1.5177747 -0.59749454 0.80261666 1.1030369 0.49801388 0.6781975 1.4863981 -0.4444109
-0.48954996 -0.62537926 -0.51924646 1.4008244 -1.2624043 -0.4190618 0.5813381 0.32243872
-0.2566646 0.43469533 0.35485244 1.3381844 1.5233355 -0.23204379 -0.37420356 -0.69013315
0.2785993 -0.27407548 1.0050309 -0.2965534 -0.66400826 -0.3512908 -0.30073905 -0.6503781
0.021054454 0.2178502 2.5661778 1.9832613 -0.569311 1.270949 -1.1804645 8.737048
0.3959585 -1.5370039 5.0464177 1.5390394 4.43974 4.598095 -1.1120623 -1.5151765
-2.3670838 1.7523384 -1.9867446 8.5755415 -1.406954 -2.29573 -1.1831145 -1.4104136
-1.90972 2.2403579 0.85094637 4.2310224 4.0902004 -1.9221649 1.8037076 -0.46685654
1.7674671 0.8993145 -1.0933551 1.7226831 1.0521687 2.6407475 2.7217116 -0.38228282
-0.5784338 -3.956061 1.1436586 -2.5627415 1.8532803 -0.6321327 -3.2692876 -0.35609958
-0.5362468 -2.2234757 1.1336393 0.92932194 4.76121 3.6756291 -1.8306427 1.6493022
1.196457 -0.23270755 -0.06789037 1.2324241 -0.28822875 -0.31832156 -0.25456914 -0.26165408
1.044444 1.1681051 0.80831325 -0.27068081 0.7097804 -0.6088308 1.1427807 0.9674856
0.9969471 1.0865284 0.97053784 -0.34405595 -0.21802114 -0.7315475 -0.33555952 1.4507898
-0.89950496 -0.938175 1.9889574 1.6619225 -0.60721624 4.141149 3.412525 1.8568558
1.4345503 -0.76830375 -0.8439993 -1.0429188 2.8569722 -0.9219442 2.289756 -0.5883037
-0.75904477 -0.97641134 -0.716012 -0.85736626 4.134038 2.2192998 1.3254706 0.7951349
-0.6899969 0.38468954 0.7891101 -0.30314484 -0.06565887 1.0694662 -0.18423015 -0.3141885
00000000: 4004 e8be 02a9 373f 2e1f 233f 44a6 f6be
00000010: eb36 043f 72ed f23e 9b9d 733f 37f5 793f
00000020: 3435 9cbe 4266 38be 9beb 2ac0 0a3c 413f
00000030: 9ebb bbbf a2c2 473f 2f16 89bd cd01 16c0
00000040: 3b08 bbbe 2d23 ddbe 9149 aebf 6925 e03e
00000050: b509 033f ace0 a03f 9259 793f 56b4 26bf
00000060: 7b35 913f a3fc 1cc0 9d16 293d 4bc3 c03c
00000070: 6184 03c0 e82b a9bd 4237 82bc d777 a93e
00000080: d626 953c 99f6 18c0 b094 09c0 64b8 a8bf
00000090: 045d 793e 780c d3bf 88ed c13e 8cc8 19c0
000000a0: 13ae babf 6042 25c0 9507 0bc0 2793 c4bf
000000b0: 88af d8bd a5fd 4e3e 72db ac3e 1661 ea3d
000000c0: 3691 fabf 64c0 523f 47de 163f a538 27bf
000000d0: bd94 0dbf 97c6 783f d818 0fbf 7271 e1be
000000e0: d355 2fbf e616 0fbf 0129 203f b9e1 4d3f
000000f0: 4900 b43f a072 68bf c2d9 e23f c36b 0cbf
00000100: 3901 7b3f 5334 b63f 5afe c83e 397d 783f
00000110: 9c9a e53f 9482 04bf 57f8 02bf 12ef 76bf
00000120: 6152 31bf 7c90 0540 5a87 f2bf 312d 04bf
00000130: 62a9 883e b0ae cd3e bf0d 3fbf d65e 083f
00000140: 1274 703e 6172 143f 7675 bc3e de88 09bf
00000150: 9b45 debe f582 89bf 566d 043f 7afd 75bf
00000160: 9efa d43e 3df8 efbe 98b9 98bf 1469 03bf
00000170: 02c5 8fbe 3992 a2bf 452d bf3e 6999 3c3e
00000180: b6d9 3a3f ca6b f53e 4e1a 90bf 750c 7f3f
00000190: 175a bc3e 63df 12bf 0754 11bf 0928 5d3f
000001a0: 6b62 b8be afef 8ebe b9ef 01bf 8448 18bf
000001b0: 4f42 ac3e deb9 2a3f a0ea 973f b831 15bf
000001c0: 7146 c23f 67f5 18bf 4978 4d3f 5030 8d3f
000001d0: adfb fe3e 5a9e 2d3f 4b42 be3f d389 e3be
000001e0: 4ba6 fabe db18 20bf 56ed 04bf 374e b33f
000001f0: 7796 a1bf 458f d6be 93d2 143f b016 a53e
00000200: 8b69 83be 6390 de3e 38af b53e a049 ab3f
00000210: a8fc c23f e39c 6dbe 9c97 bfbe 91ac 30bf
00000220: 91a4 8e3e 9f53 8cbe daa4 803f d9d5 97be
00000230: 72fc 29bf 63dc b3be 78fa 99be 2e7f 26bf
00000240: 647a ac3c 1f14 5f3e 423c 2440 82db fd3f
00000250: 5ebe 11bf 75ae a23f 7619 97bf f3ca 0b41
00000260: 13bb ca3e 8bbc c4bf 417c a140 3eff c43f
00000270: 5a12 8e40 9823 9340 0f58 8ebf 4ef1 c1bf
00000280: 4d7e 17c0 a04c e03f a64d febf 6b35 0941
00000290: 1217 b4bf 3eed 12c0 4c70 97bf 6f88 b4bf
000002a0: b471 f4bf 0662 0f40 9fd7 593f 8964 8740
000002b0: ece2 8240 8009 f6bf e4df e63f d207 efbe
000002c0: 5d3c e23f 7a39 663f 0ff3 8bbf e180 dc3f
000002d0: 77ad 863f 0202 2940 8630 2e40 93ba c3be
000002e0: 3d14 14bf 1a30 7dc0 6863 923f f503 24c0
000002f0: 4a38 ed3f 73d3 21bf 023c 51c0 af52 b6be
00000300: 7847 09bf 6d4d 0ec0 181b 913f 0be8 6d3f
00000310: d55b 9840 823d 6b40 8052 eabf 561c d33f
00000320: 8125 993f e34a 6ebe 1b0a 8bbd 13c0 9d3f
00000330: b892 93be 0bfb a2be e356 82be 86f7 85be
00000340: 57b0 853f 7884 953f 9eed 4e3f ad96 8abe
00000350: 2bb4 353f 56dc 1bbf a346 923f 23ad 773f
00000360: ed37 7f3f 5d13 8b3f 2b75 783f 1a28 b0be
00000370: ef40 5fbe b246 3bbf 75ce abbe 7bb3 b93f
00000380: f545 66bf 3d2c 70bf 2896 fe3f e0b9 d43f
00000390: 8672 1bbf 4b84 8440 cf66 5a40 73ad ed3f
000003a0: 589f b73f 8eaf 44bf 5710 58bf 5d7e 85bf
000003b0: a2d8 3640 8904 6cbf 5d8b 1240 129b 16bf
000003c0: c250 42bf 18f6 79bf 904c 37bf 5b7c 5bbf
000003d0: 0a4a 8440 0209 0e40 05a9 a93f f68d 4b3f
000003e0: a3a3 30bf 07f6 c43e 1f03 4a3f cd35 9bbe
000003f0: 2878 86bd 45e4 883f d4a6 3cbe 51dd a0be

solution_network.6.bias f4 [25]
0.16746528 -0.2493648 0.030776808 0.17227708 -0.045080535 0.011926656 -0.7588264 0.23721908
0.27425817 -0.69588953 0.21054493 0.042789366 0.05681935 -0.06706401 0.5734854 0.1532924
0.00019394873 -0.24576657 0.18404047 0.0807077 -0.034534268 0.100421384 0.0043765935 -0.046118286
-0.1320579
00000000: 057c 2b3e 7c59 7fbe a51f fc3c 6769 303e
00000010: 5ea6 38bd 0568 433c 7242 42bf 8fe9 723e
00000020: 916b 8c3e d125 32bf 1799 573e e743 2f3d
00000030: 68bb 683d db58 89bd f0cf 123f aff8 1c3e
00000040: b75e 4b39 3baa 7bbe 1b75 3c3e 144a a53d
00000050: ce73 0dbd baa9 cd3d 8769 8f3b 87e6 3cbd
00000060: 303a 07be

solution_network.8.weight f4 [25, 25]
0.2214145 -0.881249 -0.19390896 -0.41076022 -0.41305506 0.0984863 0.08389352 -1.1712933
-0.21641658 -1.4788456 -0.06964148 0.7775841 -0.010153875 -0.4277748 -0.17758146 0.043031488
0.7495189 -0.47176343 0.79928213 -0.5287058 0.043622285 -0.34706643 0.023685236 0.8619438
-0.3047973 1.0133969 0.4353984 -0.48388302 0.5716477 -0.3377363 0.37495407 0.38198942
-1.2905143 -0.3267034 -0.36080799 -0.11742871 0.19315714 -0.28266656 0.48583463 0.29962125
0.7168038 0.3302154 0.2693335 0.25158042 0.2551141 0.43784422 -0.36171678 -0.3754549
1.1551726 -0.20791347 -0.34445187 -0.28897932 0.20145352 -0.16908997 0.13394925 -0.332499
-0.65296394 -0.3240493 -0.066306576 -0.87595606 0.0055390922 -1.2798944 0.038835566 -0.0036434839
-0.048419926 -0.44875282 -0.9808124 0.055189006 -0.87782377 -0.2926824 -0.7131957 0.17671867
0.22121896 -0.35875735 0.1312191 -0.40879777 -0.13963582 -0.021232225 -0.16194764 -0.086784385
-0.4815233 -0.65514404 -0.22286732 -0.14286566 -0.9540466 0.25353864 -1.0511503 0.015190685
-0.21851595 -0.2264061 -0.11690764 -0.7448805 -0.15688917 -0.9882536 -0.22732991 -0.86628675
0.16186972 0.18649153 -0.4071678 0.26411125 -0.25741673 -0.46248022 0.17482084 -0.5612845
-0.025650196 -0.4283985 -0.6556161 -0.85003567 0.17352074 0.18501283 0.12832576 -1.1776656
0.18766451 -0.15593222 -0.15780118 -0.3859151 -0.9873252 0.031325553 -1.1314934 -0.21426722
-0.30284715 0.30656856 0.2976808 -0.29603028 0.18307957 0.8657917 0.63656366 -1.4041684
0.84414417 -1.1592182 0.27554193 0.32779488 0.5992725 -0.58383083 0.10865492 -0.5276594
-0.21226785 -0.24880019 0.5937903 0.31847912 0.6637213 -0.23730613 0.21541338 0.056822266
0.40024564 0.26995674 -0.93959516 -0.78009427 0.36627358 -1.3455843 -0.05215076 -2.3034642
-0.18919037 0.14253178 -0.24305162 0.38232926 0.36377773 -0.016811598 0.06361996 -0.26476526
-0.19005719 0.18636501 -0.0065696845 0.0005590162 -0.0872877 0.30284426 0.054185245 -0.2097291
0.19734104 -0.6680917 0.3333654 -0.12794112 -0.007893153 0.30825105 -0.19767962 1.3352435
0.2524247 -0.48883033 1.051706 -0.41667214 1.4971834 -1.0952474 4.920227 -0.24669091
-0.6899447 -0.16546762 -0.24961314 0.04662392 1.2335612 4.0926766 1.9321349 0.099878535
0.33310404 0.16302806 0.25908396 0.37882498 -0.16777132 -0.2706677 0.8049797 -0.5707785
-0.23019277 -2.1626937 0.26137722 -0.36056545 0.37614724 0.29747835 0.23640965 -0.07504243
0.8488784 0.047056355 0.6245393 0.37966684 0.84561193 -0.07492554 -0.046759937 -0.2553018
0.39668837 -0.14295177 0.37246317 -0.70433724 0.24643789 0.50976735 0.5270013 0.04137529
0.56050134 -2.2180767 -0.3359499 2.1330745 -1.79159 1.4952424 -0.5207193 -0.5196208
-1.0426455 0.3030207 -0.18644933 0.62508535 -0.28494337 0.53416264 -2.1907675 -0.9468339
-1.5726976 -0.24526474 -0.30190822 -0.3788822 -0.5951848 -0.35947403 1.8139966 1.0768069
-0.6100613 1.9745146 -1.5159767 0.39375794 -0.72224545 0.9981046 -0.7087563 0.8858548
00000000: 7cba 623e 8999 61bf 1290 46be 2a4f d2be
00000010: f47b d3be 2fb3 c93d 5ed0 ab3d f0ec 95bf
00000020: 4f9c 5dbe d04a bdbf 31a0 8ebd c00f 473f
00000030: 705c 26bc 4c05 dbbe ead7 35be c941 303d
00000040: 78e0 3f3f fa8a f1be c19d 4c3f 4359 07bf
00000050: 48ad 323d b1b2 b1be 8a07 c23c 59a8 5c3f
00000060: 640e 9cbe fdb6 813f 8aec de3e 84bf f7be
00000070: 8157 123f c6eb acbe fbf9 bf3e 1e94 c33e
00000080: 932f a5bf ab45 a7be d3bb b8be 777e f0bd
00000090: fcca 453e acb9 90be 51bf f83e f567 993e
000000a0: 7480 373f fe11 a93e 15e6 893e 26cf 803e
000000b0: 519e 823e 1e2d e03e f132 b9be a03b c0be
000000c0: b2dc 933f 45e7 54be ff5b b0be 19f5 93be
000000d0: d549 4e3e ec25 2dbe fe29 093e 4f3d aabe
000000e0: a528 27bf cae9 a5be becb 87bd a83e 60bf
000000f0: 4681 b53b 94d3 a3bf 0b12 1f3d 84c7 6ebb
00000100: f953 46bd eec2 e5be 8516 7bbf de0d 623d
00000110: 0fb9 60bf 78da 95be fe93 36bf bdf5 343e
00000120: 3987 623e 0baf b7be 4d5e 063e f14d d1be
00000130: b1fc 0ebe 34ef adbc 9ad5 25be 03bc b1bd
00000140: 398a f6be 85b7 27bf 5537 64be 604b 12be
00000150: 663c 74bf d1cf 813e 188c 86bf 5ae2 783c
00000160: a5c2 5fbe 00d7 67be 466d efbd 7db0 3ebf
00000170: 8ea7 20be 30fe 7cbf 2cc9 68be f8c4 5dbf
00000180: 2dc1 253e a3f7 3e3e 4c78 d0be 9739 873e
00000190: 20cc 83be 35ca ecbe 3c04 333e 57b0 0fbf
000001a0: 5c20 d2bc 0c57 dbbe 75d6 27bf f09b 59bf
000001b0: 6caf 313e 0174 3d3e d467 033e bfbd 96bf
000001c0: 202b 403e b2ac 1fbe a296 21be aa96 c5be
000001d0: 58c1 7cbf 394f 003d c7d4 90bf de68 5bbe
000001e0: c80e 9bbe 8ef6 9c3e 9e69 983e 4891 97be
000001f0: 3679 3b3e 86a4 5d3f d6f5 223f cabb b3bf
00000200: d519 583f 4361 94bf d513 8d3e bbd4 a73e
00000210: ec69 193f f075 15bf 7886 de3d b014 07bf
00000220: be5c 59be 7ac5 7ebe a402 183f b20f a33e
00000230: a4e9 293f 6100 73be 5395 5c3e 77be 683d
00000240: ffec cc3e c537 8a3e 4f89 70bf 42b4 47bf
00000250: 3688 bb3e 1b3c acbf 099c 55bd f56b 13c0
00000260: 1fbb 41be daf3 113e 86e2 78be a9c0 c33e
00000270: 1341 ba3e 7ab8 89bc 2e4b 823d 508f 87be
00000280: 5a9e 42be 78d6 3e3e 8246 d7bb f18a 123a
00000290: e5c3 b2bd 670e 9b3e 59f1 5d3d 3ac3 56be
000002a0: c513 4a3e 0f08 2bbf dfae aa3e ff02 03be
000002b0: 4852 01bc 15d3 9d3e 876c 4abe 42e9 aa3f
000002c0: cf3d 813e f847 fabe 4d9e 863f 0d56 d5be
000002d0: b5a3 bf3f 1131 8cbf 8072 9d40 8b9c 7cbe
000002e0: 37a0 30bf 5870 29be 969a 7fbe b9f8 3e3d
000002f0: 55e5 9d3f 35f7 8240 3250 f73f 1e8d cc3d
00000300: 9d8c aa3e d4f0 263e a7a6 843e 59f5 c13e
00000310: 3fcc 2bbe f594 8abe 2613 4e3f 8a1e 12bf
00000320: a7b7 6bbe 9369 0ac0 3cd3 853e 099c b8be
00000330: 5f96 c03e 154f 983e 5f15 723e d8af 99bd
00000340: 1850 593f 2abe 403d cfe1 1f3f b163 c23e
00000350: 067a 583f 9072 99bd 5987 3fbd ebb6 82be
00000360: bd1a cb3e f361 12be 7eb3 be3e 724f 34bf
00000370: 375a 7c3e 1d80 023f 8fe9 063f 2379 293d
00000380: 047d 0f3f f8f4 0dc0 a001 acbe 4b84 0840
00000390: d252 e5bf 1a64 bf3f dc4d 05bf de05 05bf
000003a0: 6875 85bf 8725 9b3e 93ec 3ebe 9805 203f
000003b0: 19e4 91be e2be 083f 8935 0cc0 b563 72bf
000003c0: 284e c9bf ae26 7bbe b793 9abe d9fc c1be
000003d0: 085e 18bf fb0c b8be 0a31 e83f cfd4 893f
000003e0: fa2c 1cbf e5bc fc3f 860b c2bf a49a c93e
000003f0: 14e5 38bf c883 7f3f 0e71 35bf 61c7 623f

solution_network.8.bias f4 [25]
-0.39774817 -0.07155565 -0.072456665 -0.07124966 0.029476134 -0.16989331 -0.13308883 -0.12267958
0.18944679 -0.17382474 -0.21167071 -0.1950144 -0.08048206 -0.19739635 -0.2319207 -0.04440418
0.16270697 -0.033974186 0.26184553 0.15543692 -0.35208264 0.0258116 -0.08198752 0.07982214
-0.30587626
00000000: a6a5 cbbe c58b 92bd 2964 94bd 57eb 91bd
00000010: ef77 f13c 83f8 2dbe 7048 08be 6e3f fbbd
00000020: 57fe 413e 1dff 31be 35c0 58be dbb1 47be
00000030: c7d3 a4bd 4522 4abe 9f7c 6dbe 28e1 35bd
00000040: a89c 263e 8428 0bbd 9e10 863e db2a 1f3e
00000050: 2d44 b4be d972 d33c 13e9 a7bd ca79 a33d
00000060: d09b 9cbe

solution_network.10.weight f4 [25, 25]
-0.020851204 0.180908 -0.24693778 -0.1979556 -0.20296165 0.13710809 -0.06491923 -0.04530239
-0.79277027 -0.61773515 -0.15250061 0.087318614 -0.120740145 0.13183914 0.14474532 -0.17121218
-0.59884256 -0.5067247 -0.90162975 -1.098423 -0.3018834 -0.34982094 -0.41729593 -0.32484162
-0.022657236 0.009669143 0.06228817 -0.22588423 -0.239743 -0.25544018 -0.013687093 -0.047769133
-0.035151575 -0.054969795 -0.5042443 0.17906225 -0.25744665 -0.27397633 -0.032844536 -0.12577997
0.09320992 -0.0019507743 -0.4196814 -0.06836038 0.037996113 -0.19316503 -0.34817412 -0.06794689
-0.37284446 -0.12102381 -0.31763124 -0.2164967 -0.40999314 -0.051388275 -0.048455197 -0.583374
-0.20741941 0.1011237 -0.2960275 0.11525956 -0.29681486 -0.24887535 -0.05871124 -0.08816665
0.06391137 -0.04947949 -0.38013744 0.0072851786 -0.15326604 -0.27489063 0.044389438 -0.21381047
0.030666832 -0.27351996 -0.0655771 -0.4208125 -0.8599468 -0.021994216 0.036470257 0.2054795
-1.1508865 -0.37295288 -0.68447953 0.25290844 0.045587793 -0.39713767 -0.027526937 0.18236041
-0.09651343 0.0040296484 -0.27115613 0.12092452 0.13438483 0.21446574 0.33413708 -0.103970945
-0.07421737 0.24385834 0.047824074 -0.036386456 0.07554397 -0.23130848 0.19782145 0.19055817
0.23604561 -0.0631133 0.08245573 0.0625468 0.1301196 0.0033371157 -0.28762987 0.15390466
0.14218865 -0.044095602 -0.12594114 0.1083505 -0.06896864 0.16737886 0.23170158 0.10224366
0.17454521 -0.143129 -0.025734965 0.17221585 -0.009632242 -0.15666223 0.074594386 -0.23686112
-0.2571115 -0.5158606 0.3510305 -0.52091444 0.042356115 -0.7953351 -0.82627505 -0.18777297
-0.06263092 -0.2488936 -0.08634073 -0.36660305 -0.4639291 -0.6147267 -0.46724442 -0.8599604
-1.079022 -0.21253896 0.0849992 -0.22046708 -0.18548009 -0.13080633 -0.34561804 -0.20021695
-0.15324628 -0.31485352 -0.4231461 -0.5937709 -0.40398175 -0.20179924 -0.39284238 -0.36803216
-0.4836601 -0.17640553 -0.34886587 -0.24117231 -0.051206782 -0.4896608 -0.14224215 -0.18023968
-0.13202898 -0.08696617 -0.36889377 -0.4716059 -0.22803028 -0.18144326 -0.41395196 -0.30425227
-0.28598356 -0.37121707 -0.367789 -0.27191186 -0.5974588 -0.2690938 -0.48689538 -0.396405
-0.029089699 -0.3776652 -0.23440173 -0.13808021 0.038179956 -0.12000182 -0.38764367 -0.5505194
-0.39222428 -0.2822403 -0.38382018 -0.19196074 -0.25913465 0.028482027 -0.25347263 -0.119694754
0.032867625 -0.12410063 -0.34896255 -0.3670629 -0.051742863 0.030248884 0.014966854 -0.12833747
-0.4150708 -0.5240046 -0.2868216 -0.018989235 -0.081041865 -0.03065547 0.037532005 -0.08446392
-0.116346925 -0.41184714 -0.3359703 -0.33575964 0.092638515 -0.25962925 -0.087766 -0.20628302
-0.04822551 -0.067306876 0.04829896 -0.13818403 -0.32519764 -0.5338153 0.3531434 -0.42697614
0.10531757 -0.6383594 -0.7643433 0.063031994 -0.11445918 -0.34087855 0.0137017295 0.13972338
-0.079567194 -0.5267874 -0.4550528 -0.9048939 -1.3037432 -0.17994356 -0.23096299 -0.061250288
-0.31588322 0.013397163 -0.052860584 -0.20673013 0.18931405 0.044977095 -0.10814982 -0.11144818
00000000: 25d0 aabc f23f 393e 42dd 7cbe dfb4 4abe
00000010: 2ed5 4fbe 1066 0c3e 60f4 84bd 008f 39bd
00000020: fef2 4abf e423 1ebf 1f29 1cbe 1ad4 b23d
00000030: 9c46 f7bd d700 073e 1e38 143e 3f52 2fbe
00000040: bf4d 19bf b6b8 01bf 35d1 66bf 2099 8cbf
00000050: 7690 9abe bb1b b3be d0a7 d5be a451 a6be
00000060: ab9b b9bc 536b 1e3c e121 7f3d 324e 67be
00000070: 307f 75be 0ec9 82be d43f 60bc 91a9 43bd
00000080: 19fb 0fbd 0228 61bd 2816 01bf 185c 373e
00000090: 0cd0 83be a046 8cbe fe87 06bd 77cc 00be
000000a0: d8e4 be3d 20b1 ffba 7be0 d6be 8700 8cbd
000000b0: d0a1 1b3d 0ecd 45be e143 b2be bd27 8bbd
000000c0: 78e5 bebe 55db f7bd 90a0 a2be 50b1 5dbe
000000d0: 9fea d1be 837c 52bd f578 46bd 0058 15bf
000000e0: c165 54be f119 cf3d eb90 97be 340d ec3d
000000f0: 1ef8 97be 2ed9 7ebe 327b 70bd b790 b4bd
00000100: f7e3 823d 01ab 4abd 60a1 c2be 82b8 ee3b
00000110: c6f1 1cbe 77be 8cbe b3d1 353d 22f1 5abe
00000120: 0239 fb3c cf0a 8cbe 494d 86bd bc74 d7be
00000130: 7925 5cbf 372d b4bc d661 153d 3869 523e
00000140: 4050 93bf aef3 bebe 0d3a 2fbf 377d 813e
00000150: 44ba 3a3d a155 cbbe 2c80 e1bc b0bc 3a3e
00000160: d5a8 c5bd 240b 843b fad4 8abe 46a7 f73d
00000170: 2d9c 093e e89c 5b3e 0414 ab3e b8ee d4bd
00000180: 47ff 97bd 00b6 793e 2de3 433d f709 15bd
00000190: ccb6 9a3d 21dc 6cbe b591 4a3e ae21 433e
000001a0: f1b5 713e 8c41 81bd 8dde a83d 8918 803d
000001b0: 133e 053e 83b3 5a3b 3944 93be 2f99 1d3e
000001c0: e799 113e 979d 34bd b7f6 00be dee6 dd3d
000001d0: 6e3f 8dbd 5d65 2b3e 2e43 6d3e 2065 d13d
000001e0: fbbb 323e 6990 12be 22d2 d2bc 5a59 303e
000001f0: 8dd0 1dbc 106c 20be f1c4 983d b98b 72be
00000200: 1ea4 83be 710f 04bf 45ba b33e a65a 05bf
00000210: 9b7d 2d3d 159b 4bbf c386 53bf 8f47 40be
00000220: a444 80bd f7dd 7ebe 69d3 b0bd 65b3 bbbe
00000230: 1d88 edbe bb5e 1dbf a93a efbe 5d26 5cbf
00000240: 651d 8abf d0a3 59be 1014 ae3d 1fc2 61be
00000250: 7eee 3dbe 18f2 05be d9f4 b0be ac05 4dbe
00000260: 98ec 1cbe 7b34 a1be 9ba6 d8be 5f01 18bf
00000270: b2d6 cebe 76a4 4ebe a322 c9be b66e bcbe
00000280: 4ca2 f7be a7a3 34be 8c9e b2be e0f5 76be
00000290: 34be 51bd d2b4 fabe eda7 11be c090 38be
000002a0: 9b32 07be 521b b2bd a5df bcbe 5476 f1be
000002b0: c580 69be 43cc 39be 83f1 d3be f4c6 9bbe
000002c0: 706c 92be 2a10 bebe d74e bcbe 0838 8bbe
000002d0: 0ff3 18bf aac6 89be 5a4a f9be 99f5 cabe
000002e0: 854d eebc 555d c1be 0207 70be e664 0dbe
000002f0: 9662 1c3d 84c3 f5bd 3b79 c6be d7ee 0cbf
00000300: 9fd1 c8be cd81 90be 1484 c4be 5b91 44be
00000310: 4cad 84be 2453 e93c 2ac7 81be 8622 f5bd
00000320: 34a0 063d 7928 febd 38ab b2be abef bbbe
00000330: 53f0 53bd 82cc f73c 8937 753c e66a 03be
00000340: 2984 d4be 2a25 06bf 48da 92be 508f 9bbc
00000350: 47f9 a5bd 2e21 fbbc 29bb 193d 6bfb acbd
00000360: 4c47 eebd a1dd d2be 4d04 acbe b0e8 abbe
00000370: 43b9 bd3d 20ee 84be a9be b3bd db3b 53be
00000380: 1d88 45bd 30d8 89bd 21d5 453d 1d80 0dbe
00000390: 4e80 a6be 1fa8 08bf 36cf b43e 9e9c dabe
000003a0: bdb0 d73d 866b 23bf 01ac 43bf eb16 813d
000003b0: 9369 eabd a287 aebe 387d 603c a513 0f3e
000003c0: 20f4 a2bd 8adb 06bf aefc e8be 20a7 67bf
000003d0: 0fe1 a6bf 2043 38be 9081 6cbe 95e1 7abd
000003e0: 72bb a1be c67f 5b3c 5784 58bd 10b1 53be
000003f0: 8bdb 413e e739 383d a77d ddbd f23e e4bd

solution_network.10.bias f4 [25]
-0.30604443 -0.1970874 -0.33565092 -0.063327976 0.09582386 -0.3730809 -0.18065041 -0.4556204
-0.04576982 -0.175359 0.073730335 -0.25015545 0.21943188 -0.27157855 -0.2546476 -0.48893896
-0.08848498 -0.25036284 -0.3960312 -0.14132537 -0.01081411 -0.36468193 -0.22109628 -0.25696942
-0.21483344
00000000: dbb1 9cbe 48d1 49be 70da abbe 19b2 81bd
00000010: 4d3f c43d 7604 bfbe 6cfc 38be 1447 e9be
00000020: 2379 3bbd 4f91 33be eeff 963d 6014 80be
00000030: c0b2 603e 580c 8bbe 2c61 82be 3556 fabe
00000040: 9d37 b5bd 8f2f 80be 9ac4 cabe 99b7 10be
00000050: aa2d 31bc 97b7 babe 1067 62be 7f91 83be
00000060: 4cfd 5bbe

solution_network.12.weight f4 [3, 25]
-0.1594136 -0.040244475 0.13374048 0.14632703 0.23877895 -0.20297381 0.04024005 0.06397631
-0.06092425 -0.15581682 0.16815905 -0.17109421 0.26230398 -0.02100989 0.14372785 0.042302273
-0.08826663 0.020261224 -0.031672865 0.063727364 0.104732 0.05235921 0.14720891 -0.15512332
0.085059755 0.21194836 0.21823795 -0.06925324 -0.14469095 0.11429699 0.119218096 0.00095893815
-0.07494395 0.2121231 0.24491224 0.12557754 0.108558625 0.07818929 -0.121657364 -0.024038749
-0.03261623 0.02900521 0.023895556 -0.009817233 0.07724031 0.08880572 0.019786399 0.1625282
0.07537414 -0.09384444 -0.08104092 0.2539019 -0.043358438 0.17780516 -0.057719834 -0.15576728
0.0155426 0.0152879795 0.025925435 -0.20333064 -0.043565094 0.25672585 0.23946959 0.46214965
-0.035967648 -0.0073572416 0.29220182 -0.019589787 -0.04382001 0.103995636 0.05056098 -0.075026125
0.090886824 0.24394742 0.057874035
00000000: 523d 23be 64d7 24bd 44f3 083e c1d6 153e
00000010: 7882 743e 5ed8 4fbe c0d2 243d 0306 833d
00000020: b58b 79bd 728e 1fbe e331 2c3e 5233 2fbe
00000030: b54c 863e ef1c acbc 652d 133e 2645 2d3d
00000040: 23c5 b4bd defa a53c 68bb 01bd 7e83 823d
00000050: bb7d d63d 9c76 563d efbd 163e a6d8 1ebe
00000060: cf33 ae3d fe08 593e c579 5f3e a5d4 8dbd
00000070: dd29 14be 8a14 ea3d 9e28 f43d 4061 7b3a
00000080: 377c 99bd cc36 593e 46ca 7a3e 6697 003e
00000090: fc53 de3d b521 a03d 7f27 f9bd e9ec c4bc
000000a0: 9998 05bd 569c ed3c 9dc0 c33c 76d8 20bc
000000b0: 2b30 9e3d c6df b53d 1617 a23c cb6d 263e
000000c0: c25d 9a3d 8431 c0bd c8f8 a5bd 6eff 813e
000000d0: 9e98 31bd 8e12 363e a26b 6cbd 7581 1fbe
000000e0: 64a6 7e3c 6f7a 7a3c 9461 d43c e835 50be
000000f0: 5071 32bd 9271 833e 8437 753e e19e ec3e
00000100: d052 13bd 0415 f1bb 7a9b 953e c37a a0bc
00000110: 9c7c 33bd aafb d43d 0819 4f3d 4ca7 99bd
00000120: df22 ba3d 5acd 793e 530d 6d3d

solution_network.12.bias f4 [3]
0.084661305 0.086432144 0.109826215
00000000: e862 ad3d 5603 b13d 91ec e03d
