results/case_0/noise_0.030/5_25_50_10/model.pth (torch, 21206 bytes, 16 tensors)

log_Ng_params f4 [2]
00000000: e093 aebe ebef 83be
-0.34097195 -0.2576898

log_Tg_params f4 [2]
00000000: 300f f6be 337c 393c
-0.48058462 0.011321115

solution_network.0.weight f4 [25, 1]
00000000: 8268 15c0 aa7f babf a954 09bf f08e 443f
00000010: 16ed 4441 d122 25c0 febe 4041 599a c63f
00000020: 5723 10be 13b7 1140 3c2f 7ebf fec1 0c40
00000030: f6f0 26bf 68f8 16bf eb72 19c1 9eae 6e41
00000040: a795 8abf 3b3e 843f cc54 4441 343b ca3f
00000050: 0d8b 26c1 2e83 06bf 4d8d 19bf 15a9 393f
00000060: 173e 5241
-2.3345037 -1.457021 -0.53644806 0.76780605 12.307882 -2.58025 12.046629 1.5515853
-0.14075981 2.276799 -0.99290824 2.1993403 -0.6521143 -0.5897279 -9.590556 14.917631
-1.082692 1.0331491 12.270702 1.5799317 -10.408948 -0.52543914 -0.5998123 0.72523624
13.140159

solution_network.0.bias f4 [25]
00000000: 5e5c b33e f265 5f40 c360 f63f c20e dfbe
00000010: f866 80bd ea3c 003f 2dd8 c7bd 5593 56bf
00000020: 4f34 6c40 b0d4 fabe df89 b240 1ba9 0ebf
00000030: c534 d33f 1cb5 f23f ef06 283e 08d9 24be
00000040: 3d40 e740 89a7 74bf 5ed1 53bc d81c dfbe
00000050: 6ae8 3d3e 38ab ed3f fda5 0940 8a49 84bf
00000060: c2fc eabd
0.35031408 3.4905972 1.9248279 -0.43565947 -0.0626964 0.5009295 -0.09758029 -0.8381856
3.6906927 -0.48990393 5.57933 -0.55726784 1.6500479 1.896152 0.16408895 -0.16098416
7.2265916 -0.9556814 -0.012928335 -0.43576694 0.1854569 1.8567877 2.1507561 -1.0334942
-0.11473991

solution_network.2.weight f4 [25, 25]
00000000: 7953 4dbf aed0 1abf 6f29 b8c0 df8f 8d3f
00000010: 5f98 433f a77c 13bf 40b9 4c3f 2ce1 513f
00000020: a62a f5c0 bddd 883f 0d37 3dc1 8486 433f
00000030: 948a 51c0 40c2 abc0 58cc 27bf d997 463f
00000040: 6b26 61c1 2938 703f 7bbd 7b3f 8001 343f
00000050: 9308 42bf 08c6 b7c0 e7df c4c0 2f19 963f
00000060: ab66 4e3f b6d9 8c3f ffdc 6d3e 68d1 3abd
00000070: 57d1 2abf 07aa 5dbf b2ba a13f b695 84bf
00000080: 7c17 5fbf a3a3 21be 2f93 39bf 3f86 843d
00000090: 3657 2ebf 4b85 2cbf 58b4 05be 76f5 0340
000000a0: eeb6 72bf 1e64 70be ac5c 54bf 8f7d 8dbf
000000b0: f1a7 10bf 12c7 2340 5b04 a73c ae3b 82be
000000c0: 1c56 36bf 0382 99bf 5cb2 14bf 6553 cbbf
000000d0: abd7 9abf 5203 a43e d94d ee3d 8ad4 1fbf
000000e0: bd41 d43e 54a8 c73e ee8d 6ebf cf54 723e
000000f0: 05f4 8ebf e4d6 ed3d 3b5b 79bf d6f9 a5bf
00000100: deba 16bf 3376 bc3e 5e2f 43bf 56bf 1d3f
00000110: 3e53 d23e 4f89 2d3e 0ff7 3ebf fe77 c0bf
00000120: c23c c8bf d994 293f 648b a03e 084b 72bf
00000130: 2cd2 acc0 0d83 cfbf 404c 5d3f b530 f73e
00000140: 1d6a 6fbf 74bf 0f3f 8e70 5f3f 53bb 9dbf
00000150: 9e25 533f cb4d 1fbf 92cc 513f 969b ddbf
00000160: f536 dabf 2661 23bf 9838 f03e 75ff 03bf
00000170: f442 7b3f 86f7 213f b6a4 3b3f 26f0 19bf
00000180: 5c22 e2bf 1a42 f3bf c76f b43f b2bc 2e3f
00000190: c333 54bf ab7a d9bf 9cfe c0bf 0f00 0f3f
000001a0: 37e9 4d3e 6d6b 17bf 4f79 7b3e afc1 fe3e
000001b0: 5e62 bfbf 2b24 923e 3e25 adbf e4c8 853e
000001c0: 179f cdbf 1c32 c0bf 2b75 5fbf 329e 573e
000001d0: 897e d1bf 9ac8 0b3f 9fdb a03e 44ce 683e
000001e0: 13d3 45bf 0381 e4bf 1a88 dfbf d5b9 4c3f
000001f0: 566b 8c3e 12f7 62bf 582d c1bf cb22 83bf
00000200: c083 293e adab 7d3e 4a7d 58bf 1e50 ab3e
00000210: 51b5 5f3e cc4e 43bf 5608 533e fe37 6bbf
00000220: bcda 333d 5340 70bf 4f1f a4bf 440c 58bf
00000230: d502 ed3d ee67 4fbf 6858 bb3e 7dc2 123e
00000240: 23be 6d3e ce4f 3fbf 2f12 a5bf 0d92 a2bf
00000250: 18c1 3b3f ae55 583e cd82 6abf 2a01 c5bf
00000260: 9018 a3bf a5b7 113f fca8 423e 1126 59bf
00000270: d881 aa3d fb8d a03e f1cf 81bf 1b80 a53e
00000280: 94fc 8fbf 3a7b d83e 8f5b 88bf 9a75 c0bf
00000290: 76c8 25bf 53d9 b83e f4d5 68bf bff2 d73e
000002a0: 6caa af3e 1530 a13e 0c6b 29bf 0585 c4bf
000002b0: 7e73 a6bf d2a1 373f 6c23 533e 757c 62bf
000002c0: 3e03 b0bf 7958 82c0 f498 c23f b12a a63f
000002d0: 9817 3fbf e5eb b13f 0cbe cc3f ddf3 95c0
000002e0: 9ff3 9e3f 74f5 99c0 f082 9f3f 080e e8bf
000002f0: 1ef4 61c0 a3d1 60bf e524 a53f 1c90 90c0
00000300: 9e02 c43f 8392 923f a91f b53f 50a0 1abf
00000310: 697d 85c0 d9cc 8ac0 73be dd3f 1d25 a83f
00000320: a5c1 1dc0 b614 98bf 8894 25bf 19bd 163f
00000330: bb33 0b40 934d 22c0 272a 1540 31d5 6f3f
00000340: e472 12bf bc9f 463f 3a4d 61bf 38a1 563f
00000350: 51ab 00bf 9336 11bf 00b2 9fc0 0337 2a40
00000360: f62b 20bf 1b3b 503f f1ad 0b40 56ec 2a3f
00000370: 02e8 a5c0 4723 34bf a933 64bf 4087 fd3e
00000380: c1da 1f40 4d4b 68bf 10ed 16bf fef6 91c0
00000390: 8563 253f baa0 0d3f 6d50 2cbf a5ba bf3e
000003a0: 55b4 f93e d364 16c1 2516 193f 41f2 39c1
000003b0: 0e4c 1d3f a206 2cc0 ed2a 8bc0 59ec 44bf
000003c0: 0bc0 ab3e 509f 5cc1 e378 2f3f 85e3 0e3f
000003d0: 4a3d 1c3f 5a59 48bf 2e13 8cc0 d284 a7c0
000003e0: 47eb 583f 2ea9 ac3e b484 0f40 92c1 333f
000003f0: 1109 503f f1a2 8cbf 6fa0 2bc0 330b 0140
-0.80205494 -0.6047467 -5.755058 1.1059531 0.76404375 -0.5761208 0.7997017 0.8198421
-7.661456 1.0692669 -11.82594 0.7637713 -3.2740831 -5.367462 -0.6554618 0.7757545
-14.071879 0.93835694 0.98336 0.7031479 -0.75794333 -5.7429237 -6.152332 1.1726435
0.8062541 1.100394 0.23228835 -0.04560986 -0.6672568 -0.86587566 1.26351 -1.0358188
-0.8714521 -0.15785079 -0.7249021 0.06470918 -0.68101823 -0.6739089 -0.13057077 2.0618567
-0.9481038 -0.23475692 -0.82953906 -1.1053942 -0.5650626 2.5590253 0.020387819 -0.25436157
-0.7122514 -1.1992801 -0.58084655 -1.5884825 -1.2097067 0.32033783 0.11635942 -0.62433684
0.41456404 0.38995612 -0.9318532 0.23665164 -1.1168219 0.11613253 -0.9740483 -1.2966869
-0.58878887 0.3680893 -0.7624415 0.6162008 0.41079134 0.1694691 -0.7459573 -1.5036619
-1.5643542 0.6624275 0.31356347 -0.9464574 -5.4006557 -1.6211869 0.86444473 0.48279348
-0.9352129 0.5615151 0.8728112 -1.2322792 0.82479274 -0.6222808 0.81952775 -1.7313106
-1.7048022 -0.6382011 0.46918178 -0.5156167 0.9814904 0.63268316 0.73298204 -0.6013206
-1.7666736 -1.9004548 1.4096612 0.68256676 -0.8289148 -1.699056 -1.5077701 0.55859464
0.20108496 -0.59148294 0.24557994 0.49757144 -1.4951894 0.2854322 -1.352699 0.2612983
-1.6064175 -1.5015292 -0.8728816 0.2105644 -1.636674 0.5460297 0.31417558 0.22734934
-0.772752 -1.7851871 -1.746341 0.7997106 0.2742564 -0.8865825 -1.5091963 -1.0244993
0.16554165 0.2477252 -0.84566176 0.33459562 0.2184651 -0.7629211 0.20608649 -0.9188231
0.043909773 -0.9384815 -1.2822055 -0.84393716 0.11572806 -0.8101796 0.36590886 0.14332004
0.23217063 -0.7473115 -1.2896174 -1.2700821 0.7334151 0.21126434 -0.91605836 -1.539098
-1.2741871 0.56920844 0.19009775 -0.8482371 0.08325547 0.31358323 -1.0141584 0.323243
-1.1248956 0.42281514 -1.0652941 -1.5035889 -0.64759004 0.36103305 -0.90951467 0.42177388
0.3430971 0.31481996 -0.66178966 -1.5353094 -1.3003995 0.71731293 0.20618981 -0.88471156
-1.375099 -4.0733 1.5202928 1.2981778 -0.74645376 1.3900114 1.5995498 -4.6860185
1.2418097 -4.8112125 1.2461834 -1.8129282 -3.5305247 -0.8781988 1.2901884 -4.5175915
1.5313299 1.1450962 1.4150287 -0.6040087 -4.171559 -4.337506 1.7323745 1.3136326
-2.4649441 -1.188132 -0.64679766 0.5888229 2.1750324 -2.5359848 2.3306978 0.9368468
-0.5720656 0.77587485 -0.88008463 0.8383975 -0.5026141 -0.567239 -4.9904785 2.6596076
-0.6256708 0.8134019 2.1824915 0.6676687 -5.1845713 -0.7036633 -0.8914133 0.4951725
2.4977267 -0.907399 -0.5895548 -4.5614004 0.6460498 0.55323374 -0.6731022 0.37447086
0.48770395 -9.399615 0.59799415 -11.621644 0.61444175 -2.6879048 -4.34899 -0.7692314
0.33544955 -13.788895 0.68543833 0.5581592 0.6103102 -0.7826134 -4.3773413 -5.2349634
0.84734005 0.33722824 2.2424746 0.7021724 0.81263834 -1.0987226 -2.681667 2.0163085

solution_network.2.bias f4 [25]
00000000: 6dbf 5d3f 3d8b ecbe e723 5d3b 6354 1c3f
00000010: a4b2 753e 881d 543e 0071 e83d 8769 b13f
00000020: 96dd 41be 3f60 e93e d331 d7be 892a e63d
00000030: 4d3f 2d3f 3372 153e 9b13 523f 7ef3 ebbc
00000040: 10ab 113e 54c5 5e3d baad 0d3f b6f6 543c
00000050: f284 823e 8539 88be b2a2 323e 1b68 853e
00000060: 9bb4 c93e
0.8662022 -0.4619998 0.0033743323 0.61066264 0.23993927 0.2071439 0.11349678 1.3860329
-0.18932185 0.45581242 -0.420302 0.11238582 0.67674714 0.14594345 0.82061166 -0.02880263
0.14225411 0.054387406 0.5534321 0.012998274 0.25492054 -0.26606384 0.17444876 0.2605599
0.39395604

solution_network.4.weight f4 [25, 25]
00000000: a4bb 96c0 9a5b 243f ee39 8a3e 397b 743d
00000010: ee65 933e 080c 8d3c 9b4f 9c3e 6a42 05c0
00000020: 7ce7 a93e e9e7 60c0 6292 9f3f ce87 2c3e
00000030: a56e a23e dddb 1fbe 0cb0 19c0 4c99 653f
00000040: 3990 0340 fe11 f23e 6bdd 5abd bf62 8c3e
00000050: d02e 4d3d 490b fc3e 198c d33f 979b 083f
00000060: 57a6 ba3e 5b36 1bc0 83d0 803f 1537 d13c
00000070: 7ab6 28bf 5f08 16be 758e 203e 1948 12bd
00000080: 3bb0 5c40 1889 443e 2daa 5ac0 b332 9d3f
00000090: 64bf e0bc b988 5ebf 99c2 21bd b0a5 aabf
000000a0: 114f 923f 62f0 b23f 5540 77be 5a74 0d3f
000000b0: 4b86 073f f303 58be a867 943e 6bd5 a73f
000000c0: 2a6d ffbd b94c c33e a36f 4c3f cfc5 40bf
000000d0: 053b 703e 280a 283f 5581 ad3e 83b8 b13e
000000e0: b6c3 ca3d fa23 dcbf b383 9dbe 7a19 563f
000000f0: 5c5b a0bf 8198 cb3e f382 603f 7db9 e73e
00000100: 08d3 ab3e 1a3a 1bbf cfcb 86bf 099a 103f
00000110: e0d8 a43f 5589 7e3d 315c a03e d660 93be
00000120: c423 20bf 2453 423f 1e3b c6bc 97ef 143f
00000130: 7cbb 60bf dc4b 613f 7d37 103f 1534 593f
00000140: 8ffb 1b3f 7c57 2d3f ee97 c0bf 0780 a7bd
00000150: 4d13 213f b93a 7abf 63fa 4a3f 9bf6 c93e
00000160: af94 653f 5977 103f ff52 8cbf 662e 88bf
00000170: c3b1 903f 00bd 01bf 782b fabd 3068 063f
00000180: e22a 22bf 3330 67bf 84c5 7f3f 7606 7a3e
00000190: e3ee ee3e 829d 50bf 8fec 043f 205f 373f
000001a0: 95eb 21be 26b1 cd3e 1418 a13e 458a 68bf
000001b0: f21a da3e b52b 193f 4be7 93bf 1bfd 8f3e
000001c0: cf1b ad3d de00 093f 006d 143f 56f1 9bbf
000001d0: 4f9a 14bf 7e72 8b3e 1dee 6bbf b3a9 633e
000001e0: f2b6 3c3e 6ef1 24bf 49f6 f4be 4e3c eabc
000001f0: 7106 5c3e 28aa 023f c530 42bf 616f b03e
00000200: c8ba f03e fcdb 733e c608 e63e 4172 2d3f
00000210: 62d2 d0bf a645 913e 0031 1f3f 5962 a4bf
00000220: ec74 c53e dcca d83e 2a92 3f3e 9d4e dd3e
00000230: f46d 16bf 6273 02bf 976b af3e 0098 18bf
00000240: f221 b83e 73eb c83e c4ac abbe 11d7 7ebf
00000250: 17cc c33e b797 af3e fc15 febf 84fa b83e
00000260: 6449 6b3e b135 0cbf cca7 d0be 1a67 a73d
00000270: 662d 773e 545c 3e40 a710 e63e 7bc3 3cc0
00000280: 303a a83f d44c aebe 1071 4dbf 5069 0bbe
00000290: 505c 0a3f 33df 7d3f 6d1f 893f d4bf d6be
000002a0: d236 34bf fb9b 033f 186e f2be cbd3 3e3f
000002b0: e6fa 913f 53a8 e1be fab4 673e 7b52 b43e
000002c0: 4f6a 63bf a2b2 463f 86b6 ac3f 13ea 103f
000002d0: 8645 103f a057 343f 5143 3c3f a8e0 4d3e
000002e0: b0ae f53e 790a a6bf d38c b13e 1f08 a83e
000002f0: 8ddc 733f 410a fd3e f374 3fbf ae83 4bbf
00000300: f550 423f aa9e 38be 888c 953e 9ad2 c03e
00000310: b6ab b4be d90f 41bf e424 383f c92e b13e
00000320: 965d 7dbc c405 1dbf 00bc 463f 6fe8 6b3f
00000330: 49c9 0b3f 06a3 713f 8e80 8c3f 30f5 17bf
00000340: faf8 1b3f 1023 b3bc e108 c9bf 12c8 593f
00000350: 539b 2440 20d8 2a3f 4fbb fc3d 0e40 17bf
00000360: 757f 82be 850e 433f ad70 ac3e 31ef c13f
00000370: b4c5 e73e a74d 3c3e 8a21 7bbf 2fcc 243f
00000380: 459f 913f 5cc4 d2bf 6c86 c23e dba6 213e
00000390: 01c6 d73e 43a2 813c f858 913c b804 a23d
000003a0: f6b0 9abf b53c 503f 000c ecbf 48da 803f
000003b0: 4683 9fbe 9dd6 273e 29ab cabc 7d9d c8c0
000003c0: 72c6 453f 5797 0740 0354 a33d bdc5 36c0
000003d0: 45e6 f23e 4726 15bf 186d f23e f5dd b13f
000003e0: be6e ca3c 016e d33e f9c2 903e 6dcf 13bf
000003f0: e42a 2a3f a190 423f bc7a 073f 21cf 4f3f
-4.7104053 0.6420227 0.26997322 0.059687827 0.28788704 0.017217651 0.30529484 -2.0821786
0.3318442 -3.5141547 1.2466547 0.1684868 0.3172504 -0.15611215 -2.40137 0.8968704
2.0556777 0.47279352 -0.053433817 0.27419087 0.050093472 0.4922736 1.652713 0.5336241
0.36455032 -2.4251926 1.0063633 0.02553896 -0.6590344 -0.14651631 0.15679343 -0.03571329
3.4482563 0.19192922 -3.4166367 1.2281097 -0.027435012 -0.8692737 -0.039492223 -1.3331814
1.1430379 1.3979609 -0.24145634 0.55255663 0.5293929 -0.21095257 0.28985333 1.3112005
-0.12471993 0.38144472 0.79857844 -0.7530183 0.23460014 0.656405 0.33887735 0.34711084
0.0990061 -1.7198479 -0.3076454 0.83632624 -1.2527881 0.3976479 0.8769981 0.45258704
0.33559442 -0.6063553 -1.0530947 0.5648504 1.2878685 0.06214269 0.31320336 -0.28784817
-0.62554574 0.7590811 -0.024198111 0.58178085 -0.8778608 0.8800638 0.5633467 0.84845096
0.6093072 0.67711616 -1.5046365 -0.08178716 0.62920076 -0.97745854 0.7928831 0.39445958
0.8968 0.5643211 -1.0962828 -1.063916 1.1304249 -0.50679016 -0.12215322 0.5250273
-0.63346684 -0.9030792 0.9991076 0.24416527 0.4666663 -0.8149034 0.5192346 0.71629524
-0.15812524 0.40174216 0.31463683 -0.9083598 0.42598683 0.59832317 -1.155496 0.28122792
0.0845257 0.5351695 0.5797882 -1.2183025 -0.58047956 0.27235788 -0.9216021 0.22232704
0.18429163 -0.6443089 -0.4784415 -0.028593209 0.21486832 0.5104089 -0.75855666 0.34459975
0.47017503 0.23814386 0.4492857 0.6775246 -1.6314204 0.2837345 0.62184143 -1.2842513
0.38565767 0.4234227 0.18708101 0.4322404 -0.58761525 -0.5095731 0.34261772 -0.59606934
0.35963398 0.39242133 -0.33530247 -0.99546915 0.38241646 0.34295437 -1.9850459 0.36128628
0.22977215 -0.54769427 -0.4075302 0.08173962 0.24138412 2.9743853 0.4493458 -2.9494312
1.3142757 -0.3404299 -0.80250645 -0.13614392 0.5404711 0.991687 1.0712715 -0.41943228
-0.7039615 0.5140988 -0.4734962 0.7454192 1.1404693 -0.44073734 0.22627631 0.35219178
-0.8883409 0.7761632 1.3493202 0.5660717 0.56356084 0.70446205 0.73540217 0.20105231
0.47984838 -1.2971946 0.34677753 0.32818696 0.9525841 0.49421886 -0.74787825 -0.794978
0.7590478 -0.18029276 0.2920878 0.37660676 -0.35287255 -0.75414807 0.7193129 0.34606007
-0.015464207 -0.6133692 0.77630615 0.9215154 0.5460401 0.9438938 1.0976732 -0.593585
0.60926783 -0.021867305 -1.5705835 0.8507091 2.5719802 0.6673603 0.12340414 -0.59082115
-0.25487867 0.7619403 0.33679715 1.515112 0.45268023 0.18388997 -0.9809805 0.6437406
1.137673 -1.6466174 0.3799318 0.15786307 0.42143252 0.015824443 0.017742619 0.07911056
-1.2085254 0.8134263 -1.8441162 1.0066614 -0.3115484 0.16390462 -0.024739819 -6.2692246
0.7725593 2.118612 0.07975008 -2.855819 0.47441307 -0.5826153 0.47348857 1.3895861
0.02471101 0.41294864 0.28273752 -0.5773838 0.66471696 0.76001936 0.5292165 0.8117543

solution_network.4.bias f4 [25]
00000000: cadf 823f 3da5 053f 855e d7be 7918 54be
00000010: a786 debd d46e 6cbe 35e6 1f3f b5f3 34be
00000020: 3321 e13d a083 823f faca 28be 6062 15bf
00000030: 2a4b 98be 8e0d 1ebf 0829 6cbe b71b 4b3f
00000040: d9dc 86be 2597 533f afd2 113f c3e6 c73c
00000050: 1f9d 08be acf2 a4bf 8996 423d e501 b0be
00000060: 0fc5 a53d
1.0224545 0.5220526 -0.420643 -0.2071246 -0.10865527 -0.23089153 0.62460643 -0.17671092
0.109926604 1.0196419 -0.1648368 -0.58353233 -0.29744846 -0.6173943 -0.23062527 0.79339164
-0.26340368 0.82652503 0.569621 0.024402028 -0.13341187 -1.2886558 0.047506843 -0.34376445
0.080942266

solution_network.6.weight f4 [25, 25]
00000000: d3df 90bf f79d d2bf 28a4 fcbd f1ea 26bd
00000010: df37 9b3e 68d4 a03e fed1 a9bf ee29 2c3e
00000020: fb23 f03d 6669 0abf f08a 213e 086b 1f3d
00000030: 412b 963e 2136 cf3e bc43 6e3e 93ba e0bf
00000040: 25f6 a73d 2a0a 41bf c9f0 b0bf 22e3 953e
00000050: ed21 b73c 37d9 06be 95c1 d43d ac5b 963d
00000060: 7103 69be e2cf 8cbe dcae 00bf b4f9 0ebe
00000070: d051 9c3d cc18 423d 2ab1 933d 03c9 3fbf
00000080: b839 ef3d ea8a 29be 97b8 03bf 3e3c efbd
00000090: f6f8 efbd 324c 87bc c7cf e33d 7318 2b3d
000000a0: 85fa 2c3d 8612 453e b609 46bf 1373 b0be
000000b0: b306 20bd df7c 5f3e 9df6 ea3c 5fb6 1e3e
000000c0: fd07 a33d 83f9 3dbe 133e aebf 4cb9 a8bf
000000d0: f62c c23e af5b 9c3e ae14 cc3d e46d 203e
000000e0: 9c36 09bf 889a 713e 5ca6 cdbc 8826 43bf
000000f0: 8980 c83d 4da6 813e 692a 5c3e 17ff 843d
00000100: 6316 0b3e 0056 57bf 5fa9 83bd baa8 79bf
00000110: 3569 6cbf b85d b33e f2b1 823d d2c9 f9bd
00000120: 7806 a83c c742 cb3e ce66 673e 963e c9bf
00000130: 5b9a 0ac0 6e5f ed3d 0674 7a3e 2b38 7f3e
00000140: d017 d43d 149d b0bf 135f 1c3e 8f4f 08bc
00000150: a69f efbe 90f3 bb3d 97ca 8d3e 8ff1 0b3e
00000160: d81b a23e 4edb ffbc 4e58 1ec0 18a1 9c3c
00000170: 26ae 90bf b767 a3bf a3e8 7f3e 347f 4f3e
00000180: 0f40 dabd 0a5b aa3a faeb 893e eb8b fbbd
00000190: c48f 5d3f e4ca 423f 7fdd 42bf a41f 5cbf
000001a0: f61f 58bf b30c a0bf 5661 ea3e f531 8abf
000001b0: ca74 e6bf a3dd 923e c47f 85bf 45c4 5abf
000001c0: dfd6 82bf 081c 72bf 1a35 90bf 1ae4 11be
000001d0: 6263 6bbf 867a 873f b81a b83d 12cd 88bf
000001e0: 9899 bfbf 0309 c0bf daf0 adbf 805b 65bf
000001f0: 30df 8cbf 58fe 91be d901 35c0 9c56 0340
00000200: 80c2 af3f cadd 453f 7789 713f e042 11c0
00000210: dce5 5f3f 6c3b 0f3e 5614 91be 00ea 0e3f
00000220: 2d7c 923f a455 3d3e 5fc4 8b3f a74f 483f
00000230: 5c85 08bd 2621 4b3f 5ccb 8fc0 5434 443e
00000240: 1462 173f b61e 523e c3b2 d23e 4f0c c93e
00000250: 5cb0 8e3f 777f a03f 482e 7abf e263 7bbf
00000260: 8e84 7fbd f26b a93e da68 843e bd90 ba3d
00000270: ccd8 0abf 2aad e63e 831f f23c 6d3a d33d
00000280: 4045 bc3e 4d87 9c3e e6fb 013c e35a 453f
00000290: 491d bb3e 217a 0cbe a401 f03e 32a1 f4bf
000002a0: 0be1 1ebf 209e 483e 17ac 8a3e 467c 003d
000002b0: 2ec3 773e 530c ed3e 7402 06bf 6dba 06bf
000002c0: 873a 07bf a1a6 cd3e 3560 033f eee0 d73e
000002d0: da87 693e 9b3f babe c7d4 1b3f 9867 7dbc
000002e0: 568f 6ebe 6561 5c3e f14a 033f b786 333f
000002f0: 0195 983f 0689 f83e 3118 d0be 7124 c43e
00000300: 82ee 33bf 0638 ffbe 9be9 823f d04b 563f
00000310: ac2e 58bf 85df 0d3f ca47 ee3e 6f20 88bf
00000320: 606e 343f b4af 313f df19 71bf d9a8 4cbf
00000330: f393 0dbf 7f82 4fbf da0a c83e 8f07 0abf
00000340: c698 36bf ead8 ba3e 7fc0 1ebf 5b12 75bf
00000350: 2137 31be 367b e0be 9cef 14bf f22a 14be
00000360: 4fb2 89bf 89bb 5c3f 4680 923e 84c6 89bd
00000370: b9d6 80bd 93d7 623f 2df0 debe dbfd d5be
00000380: 86f1 65bf 31c2 fabe 2dff 11bf b38f 26be
00000390: 0536 8dbd 0db0 5e3e d6ce 3e3d a90e eebe
000003a0: c4eb 9c3e 2ce2 41bc 40a2 69bb bd10 ac3d
000003b0: 90a7 043d e92c 4b3e e580 153f ab3a d43e
000003c0: 50c2 83be 2891 ae3e 69bd 8ebf 9156 7abe
000003d0: a503 bc3e ec3e e63e 967a b5be 70a0 5a3e
000003e0: bbbf a33e 7e00 3bbf decb c33f 2c5f 1240
000003f0: 3176 92bf 4139 afbf 7f5e 8bbf eece e5bf
-1.1318306 -1.6454457 -0.12335998 -0.0407514 0.30316064 0.31412053 -1.326721 0.1681287
0.11725613 -0.54067075 0.15775657 0.038920432 0.29329875 0.40470985 0.23268026 -1.7556938
0.08201245 -0.75406134 -1.3823482 0.2927485 0.022355044 -0.13168798 0.10388485 0.07341704
-0.22755219 -0.27502352 -0.50266814 -0.13962442 0.07632792 0.04738693 0.07211526 -0.74916095
0.11680931 -0.16556898 -0.51453537 -0.11681412 -0.117174074 -0.016515825 0.11123615 0.041771363
0.0422311 0.19245347 -0.7735857 -0.34462795 -0.03906889 0.21824978 0.028682048 0.15499257
0.07960508 -0.18552212 -1.3612694 -1.3181548 0.37924927 0.305387 0.09964882 0.1566692
-0.5359895 0.23594105 -0.02510374 -0.7623067 0.09790141 0.2532219 0.21500553 0.06493967
0.13582759 -0.841156 -0.06428789 -0.9752308 -0.92348033 0.3503244 0.063815966 -0.12196697
0.020510897 0.39699385 0.2259781 -1.5722225 -2.165671 0.115904674 0.24458322 0.2492377
0.103561044 -1.3797936 0.15270643 -0.0083197495 -0.4680149 0.09177315 0.27693626 0.13666366
0.31661868 -0.031232502 -2.4741397 0.019119784 -1.1303146 -1.2766026 0.24991088 0.20263368
-0.106567495 0.0012997102 0.26937848 -0.122825466 0.86547494 0.76090837 -0.76119226 -0.8598578
-0.8442377 -1.2503875 0.45777386 -1.0796496 -1.8004391 0.2868472 -1.0429616 -0.85455734
-1.0221823 -0.9457402 -1.1266205 -0.1424717 -0.9194852 1.0584266 0.08989471 -1.0687582
-1.4968748 -1.500275 -1.3589127 -0.8959274 -1.1005611 -0.2851436 -2.8282378 2.0521612
1.3731232 0.7729155 0.9435038 -2.2697067 0.8746011 0.13987511 -0.28335828 0.55825806
1.1444145 0.184897 1.0919303 0.7824654 -0.033330306 0.79347456 -4.493574 0.19160587
0.5913403 0.20519528 0.4115201 0.39267203 1.1147571 1.2538899 -0.9772687 -0.98199284
-0.062382273 0.33090168 0.25861245 0.09109638 -0.54237056 0.4505399 0.029556042 0.10313878
0.36771584 0.30571976 0.007933592 0.7709181 0.3654578 -0.13718463 0.46876252 -1.9111693
-0.6206214 0.1959157 0.2708442 0.031368516 0.24195549 0.46298465 -0.52347493 -0.52628213
-0.5282368 0.4016619 0.51318675 0.42163795 0.2280573 -0.36376652 0.6087155 -0.015466593
-0.23296866 0.21521528 0.51286227 0.70127434 1.1920472 0.4854204 -0.40643457 0.38309053
-0.7028581 -0.4984743 1.0227541 0.8370943 -0.84446216 0.5541919 0.46539146 -1.0634898
0.7048092 0.69408727 -0.941801 -0.7994514 -0.5530388 -0.81058496 0.3907078 -0.53917783
-0.71326864 0.36493617 -0.62012476 -0.95731133 -0.17306186 -0.43844002 -0.58178115 -0.14469507
-1.075754 0.86223656 0.2861349 -0.06727317 -0.06290955 0.8861019 -0.43542615 -0.4179524
-0.8982166 -0.4897628 -0.5702999 -0.16265754 -0.06895069 0.21746846 0.046583973 -0.4649556
0.30648625 -0.011833709 -0.0035649687 0.0840163 0.032386363 0.1984135 0.583998 0.4145101
-0.25734186 0.3409512 -1.1151553 -0.24447085 0.3672153 0.4496988 -0.35445088 0.21350265
0.31982216 -0.73047626 1.529659 2.2870588 -1.1442319 -1.3689348 -1.0888213 -1.7953775

solution_network.6.bias f4 [25]
00000000: 124d 51be 559f a2be 76b8 c73d 75ac 99be
00000010: ee65 41be 4374 a9bd d8b9 e5bc 3b36 dbbc
00000020: a82b aebd 496a e4ba 03ec 603e 3b7f 0ebe
00000030: 5c89 a63e e512 60bd 4443 19be bf74 783d
00000040: cdcf 57be 20d1 e1be 2b60 48be b6e9 303d
00000050: 1752 123e 6063 f1bd ad1f 5d3e 086f ea3d
00000060: 9d48 64be
-0.20439556 -0.31762186 0.0975198 -0.30014387 -0.1888654 -0.08274128 -0.028042719 -0.026759258
-0.085044205 -0.0017426695 0.21965031 -0.13915722 0.32526672 -0.05470552 -0.14967066 0.060658213
-0.21075363 -0.44104862 -0.19567935 0.043191634 0.14289127 -0.117865324 0.21594115 0.11446959
-0.22293325

solution_network.8.weight f4 [25, 25]
00000000: 86b1 a13d 0740 963d d499 d63e 175d 02be
00000010: 75fd debd 9e46 48be 1881 efbe 5b64 803f
00000020: 4253 923e bb3e e23d 4bac dfbf 94d6 503e
00000030: 19b1 af3f ec93 b2be cca0 323f d828 c03e
00000040: 0f72 373f 1d7d e8bc f375 833e 1370 373f
00000050: 839a 7ec0 e5b1 143f 8292 1e40 9aba 8b3e
00000060: 14e4 f73d 891d b73e 6dee 91bd 56b3 6dbc
00000070: dbca 9d3e 47b5 903d 5e47 cbbd fd9c 743d
00000080: 5498 4b3d 2637 5e3d a0e7 b23d 9dd4 c13d
00000090: 8a6b 543e 30d9 29bc e28e 08be 8a55 22be
000000a0: 446c 563e 2006 6f3e 4727 8abc e7f0 603e
000000b0: 853d d03d f0d4 1d3e 1c2b 4f3d 17b2 d53e
000000c0: 093c d33e 71e1 c23e f379 573e 7990 673b
000000d0: 0049 953d bbde c73e 6b07 003e d544 1c3e
000000e0: c053 75bd d98d fe3d a65f 493a abc2 803e
000000f0: 912a 4c3e 9a81 973e 4d12 753d fa16 753d
00000100: da6c 2e3e 71d2 11be 2944 fbbd 7a2c a63e
00000110: cfbd e83e 2895 cf3d 3970 163e 177a 3ebd
00000120: c483 bd3e 59f5 843e ba58 aa3e 2b82 86be
00000130: 83ba 5abe cb81 93bd 2820 c1bd 9149 663e
00000140: 3a6a 07bf 0c2a c3be e334 54be 556e 243e
00000150: 34b5 a8bd 6f72 acbe 673b debe 82ee d6bd
00000160: 25b1 e73e 4002 bebe 2870 1bbe cc2d 39be
00000170: 5e7a d4bd bde3 5bbe c52d 8f3e 2bc4 16bf
00000180: f032 6cbe 6c63 81bd 9b06 5ebe 5ed7 b6be
00000190: 8996 24bf b827 503e 065e dc3e d36a fabe
000001a0: 5950 dd3e d80e 3abf 63d9 20bf 48c0 49bd
000001b0: 7546 593f b3bc e4be 7b76 573f adf7 2fbf
000001c0: 2c59 c13e ff84 483f 0196 153d 0277 0bbc
000001d0: 1cb8 963d 5287 39be 134c 06bf 42de 973e
000001e0: 93d2 83bc f46b 49be c770 39bf c8ed 50bf
000001f0: e0de 29bf 4dea fcbe 3ddb 9cbe 11d5 3ebe
00000200: eeaa d0be dfa5 49bf 5f0b 2b3f 913d a4be
00000210: 8801 babe 7a35 4ebf c513 25bb 8ffb 103e
00000220: 27c5 6fbe 3707 ebbe 1914 34bf e9fa 09be
00000230: 7f43 abbe 64b4 02bf 6a36 7fbe aac1 a8be
00000240: 3c5d d9be 10d1 5b3f a8db 0a3b 3ce5 5ebf
00000250: dc51 28bf 4c4d 96be 5ebc 763e 542e 79be
00000260: e216 9cbc 957c e03e 1f10 f7bd d2c5 8c3d
00000270: 8363 853e 87fc fcbd 20f6 bdbe d5bd 4a3e
00000280: 45f7 c0be c801 e73e ca7e c7be d974 d7be
00000290: 3351 91bd 93a5 84b9 18cb 13be 7e0d 6b3e
000002a0: 247b 023f 5aa9 5cbe 575c 06bd 0630 afbd
000002b0: 2fed 1e3f d6e3 8e3e c0aa 9c3e e60a b83e
000002c0: 7d6a 45be 126f 823e 589f 2c3f 61bd 0cbf
000002d0: e1ad 8dbd d782 8f3c 959a 06be 0501 ebbe
000002e0: 1480 e2bd 56af 85be a85b 1b3f cf9a c9be
000002f0: 8cad 05bf 66aa f9bd c87c 4ebe 91b0 8c3e
00000300: 5205 c6bd 5c8b 3d3f fb0d 85be a901 39bf
00000310: 7417 bcbe ecbd a73e 2de3 373f f750 163f
00000320: 4d07 613e bab4 9d3c 6487 a83d 8da1 fb3e
00000330: 179d acbe 9155 cc3e 6a7f 6c3c aba1 573e
00000340: 6ea5 2dbe 7bdf 683c 15f1 29be d1d7 c03e
00000350: c088 b8bd 2e74 84be b19b 8d3d 08f4 073e
00000360: 1f86 c3bb ab4b ca3d d0c3 013f c64b 993d
00000370: 3b73 4fbe e6fe d33c ce53 5f3f 40c7 d63e
00000380: f63e e33e 0c69 793e f4b6 703e 5d16 dd3e
00000390: 7f15 043f 50ae c7be 5981 ab3e 6bf8 86bd
000003a0: cca6 163c 2a1c 19bf 889b a83d 45e4 65be
000003b0: e8f5 8a3e 1f0f 3f3d 17e1 1ebf 3ab1 3d3e
000003c0: 558f c3bd 79e7 093e 5df0 de3d f204 0c3f
000003d0: 9a78 05be a4c6 6c3e d5b6 37bd cff5 b83e
000003e0: dd61 103f 55ef cb3e b4ea ae3e 1961 da3c
000003f0: db72 6cbe 145c 9c3e 0f99 e3be 4505 f03e
0.07895188 0.07336431 0.41914237 -0.12730823 -0.10888187 -0.19558188 -0.46778178 1.0030626
0.28579146 0.11047121 -1.7474455 0.20394355 1.3725921 -0.3487848 0.69776607 0.3753116
0.71658415 -0.028379971 0.25675926 0.71655387 -3.9781806 0.58083946 2.4776921 0.27290803
0.12104049 0.3576472 -0.07125554 -0.014508089 0.3081883 0.07065826 -0.099257216 0.05972003
0.04970582 0.054251812 0.08735585 0.09464381 0.20744148 -0.010366723 -0.13335755 -0.15852943
0.20939738 0.2334218 -0.016864432 0.21966897 0.10167984 0.1541326 0.05057822 0.41737434
0.4125674 0.38062623 0.21042614 0.0035333915 0.07289314 0.39037117 0.1250283 0.15260632
-0.059894323 0.12429399 0.0007681794 0.2514852 0.19938113 0.29591066 0.059831906 0.059836365
0.17033711 -0.14240433 -0.1226886 0.32455808 0.45457312 0.10135871 0.14691247 -0.046503153
0.37014592 0.25968435 0.33270818 -0.26271185 -0.21360211 -0.072024904 -0.094299614 0.22489001
-0.52896464 -0.38118017 -0.207233 0.16057713 -0.08237687 -0.33681056 -0.43404695 -0.104947105
0.45252338 -0.37111092 -0.15179503 -0.18083876 -0.10374902 -0.21473594 0.27964607 -0.5889308
-0.23066306 -0.06317791 -0.21682207 -0.35711187 -0.642922 0.20327652 0.43040484 -0.48909625
0.43225363 -0.726789 -0.62831706 -0.04925564 0.84873134 -0.44675216 0.8416516 -0.687373
0.37763345 0.78327936 0.036520008 -0.00851226 0.07359335 -0.18118027 -0.5245983 0.29661757
-0.01609162 -0.19670087 -0.7243771 -0.81612825 -0.66355705 -0.49397507 -0.30636016 -0.18635966
-0.4075541 -0.78768724 0.66814226 -0.3207822 -0.36329293 -0.8055035 -0.0025188786 0.14158462
-0.23415051 -0.45903942 -0.70343167 -0.13474621 -0.33449933 -0.51056504 -0.24923101 -0.32960254
-0.42453945 0.8586588 0.0021188054 -0.87068534 -0.6574991 -0.29355848 0.24095294 -0.24334079
-0.01905388 0.4384505 -0.12063622 0.06873669 0.26052484 -0.12352853 -0.3710184 0.19798978
-0.37688652 0.45118546 -0.3896392 -0.42081335 -0.07095566 -0.00025300364 -0.14432943 0.22954366
0.5096915 -0.21548977 -0.032802906 -0.085540816 0.62080663 0.279082 0.30599022 0.35945815
-0.19278903 0.25475365 0.6743064 -0.5497647 -0.069179304 0.017518444 -0.13144906 -0.45899215
-0.11059585 -0.26110333 0.6068673 -0.39375922 -0.52217937 -0.12190704 -0.20164788 0.2747846
-0.096689835 0.7404077 -0.2598723 -0.7226816 -0.36736643 0.32762086 0.7183102 0.5871729
0.21975441 0.019251216 0.08228949 0.4914669 -0.337136 0.39909032 0.014434675 0.21057765
-0.16957638 0.014213438 -0.16595872 0.37664655 -0.09010458 -0.25869888 0.069144614 0.13276684
-0.005966916 0.09877714 0.5068941 0.07485156 -0.202588 0.025878381 0.8723725 0.4194889
0.44383973 0.24356478 0.23507291 0.43181124 0.515953 -0.39000177 0.33497122 -0.06590351
0.009195041 -0.598086 0.0823279 -0.22450359 0.27140737 0.04664528 -0.6206221 0.18524638
-0.09548823 0.13467206 0.108856894 0.54695046 -0.13034287 0.2312265 -0.044852097 0.36125037
0.5639933 0.39831033 0.3416344 0.026657628 -0.23090689 0.30539 -0.44452712 0.4687902

solution_network.8.bias f4 [25]
00000000: eab0 433f 2a02 833e 38e0 1e3e 3913 7ebe
00000010: 11e2 8e3e ea09 d2be 9e78 66be e882 92be
00000020: de06 9eba cd27 6bbe 6d89 c83c a1e0 0d3e
00000030: cb0d 61bd b4be c7be eec7 dcbe 74f3 9b3d
00000040: 14a4 41be 459c 37bd c6e0 8fbe 9b23 b83d
00000050: 2326 15be d693 85be 9f34 e0be bafe f0bd
00000060: 2b5a 113e
0.76441824 0.2558759 0.1551522 -0.2481202 0.2790685 -0.4102319 -0.2250695 -0.286155
-0.001205649 -0.22964402 0.024479592 0.1385522 -0.054944795 -0.39012682 -0.43121284 0.076147944
-0.18910247 -0.044826765 -0.28101176 0.08991166 -0.14565329 -0.26089352 -0.43790147 -0.11767335
0.14194553

solution_network.10.weight f4 [25, 25]
00000000: 9389 a7be 8874 e0be ac0d d8be f253 9abe
00000010: 32f6 62bd 5b75 9fbe bc1f aabe 2bd6 ddbe
00000020: 07f7 ccbe 4d83 83be b076 edbe 11af e9be
00000030: ecce 39be ea20 84bd cec9 cfbe 2eed 42be
00000040: 6fe9 f0be 6303 b4be 1af8 efbe e944 8cbe
00000050: 8fac f2bc 1dfb fdbd 4df7 0ebc 2eec f5be
00000060: 00b8 c8be 59fb 473e e180 7fbe ff0d 2dbe
00000070: 660f 51bd 26f2 72be b626 7abe b4d6 f4bd
00000080: 2e2e 2c3c 9049 9dbd 9264 7dbe 13fa 073b
00000090: cdc7 debd 837e 0fbe 42a4 99bc 758e 8e3d
000000a0: 0f48 013f f71b b33d bbbe 8fbd 514e 053d
000000b0: c11d eebd 176a 69bd 5faf 1cbd 510b 85be
000000c0: 9faa ef3d f5ba abbd 3490 02bf 2eb9 39bf
000000d0: 15f4 2ebf c0fd 0dbf 908e 33bf 0b12 4bbe
000000e0: 50a1 72be a4dc c0be 2ad8 ddbe 00d7 e0be
000000f0: c84a f6be 9ccf b4be 83e4 02bf fe70 89be
00000100: 6c6b c3be 8967 4cbf 8bfb 88be b629 b2be
00000110: 785c babe 774a 27bf 78d0 05bf 5e91 04bf
00000120: 13e2 86be 70c3 ecbe 5186 36bf c8e3 e6be
00000130: d614 30bf 7415 35bf 6c26 01bf a929 81bf
00000140: 049f b4be dd70 b9be 650f 3bbe 83ce 3ebf
00000150: a394 1bbf 6ade 12bf 15b9 2bbf 9cec f3be
00000160: 5fd3 cabe e4f0 f5be c2c3 27bf 6599 0fbf
00000170: d0c9 e5be 0a9d 0abf fb8d 3cbf 3f7f 19bf
00000180: cf71 18bf 244d 0ebf db29 d2be 2ba8 37bf
00000190: de74 5dbe 0e28 e33c 37c7 bcbd 2c08 053e
000001a0: 336e 643e 5b5a 51be 93fd 2abe baa1 a6be
000001b0: 307d 20be 5999 80be 57c9 cfbe dd08 a7be
000001c0: 3dcb a2bd 1c49 6a3c 8fc3 bbbe 488a f73e
000001d0: 9dc5 eabe 4784 86be b3af b7be 4879 0c3d
000001e0: 0edc 473e d123 963d 4192 fd3d 5f8d abbd
000001f0: 1f1a 2bbd a922 673e 7d76 393e f1d2 463e
00000200: aa77 ab3a c351 63be e03d ecbd 9d69 533e
00000210: c4dc 4e3e 380f 3d3e c594 8c3e aeab a23e
00000220: e413 863e 8895 2e3e 0ad6 263d aff9 bf3e
00000230: 9bca 8b3e fe97 943e 2455 1f3e 1d7c 3339
00000240: 852e 603e 9402 fa3b 2145 163e beba 603d
00000250: 2483 663e 8d67 873e 8927 8fbe 8ee3 56be
00000260: bddc a1be 2087 87bd d450 ea3d efa8 7fbd
00000270: 2dc5 c1be c145 81be c7ed e9be 9814 72be
00000280: a3e7 3cbe f627 42be 6678 56be e388 adbc
00000290: 3bb5 cdbe 100a ed3e 8059 01bf cbbc c3be
000002a0: a536 b4be 18cf 833d 7948 8fbc 8677 71bc
000002b0: f7b0 d23d e7d5 dfbe 1e97 2dbe 900e d5be
000002c0: e787 e4be f81b c1be 2c78 efbe de08 09bf
000002d0: ca77 5bbe 7628 87be 266b dabe 60a1 02bf
000002e0: 183d 83be 6c24 ddbe 7ee6 d5be 4e57 c9be
000002f0: ede8 c6be 1652 e6be 0867 aabe da79 a3be
00000300: bb4d dcbe c78c 91be 7c66 dabe 7b9e b0be
00000310: 02dd 53be 0d7d 77be 9276 13bf abfb d7be
00000320: 6e01 1cbf 0abc 84be 663f 74be 3205 d8bd
00000330: 5e63 fabe c36a 6dbe 1d5c d8be 5412 8bbe
00000340: 8a50 06bf ea79 c1be 506a d1be a332 a0be
00000350: c6ef b9be 8857 01be c043 a1be df8c 99bd
00000360: f4c9 0fbf 90ee 8cbe f796 d0be d082 0bbe
00000370: bbfd 83be c4e3 11be 61a3 bfbc 32ce 4fbe
00000380: 312c f2be fe42 1abe ee8b f23c ffd6 983d
00000390: 739c d53d ac4a 87bd 3ba9 383e eca7 2e3e
000003a0: 73c6 203e bac6 833e dd06 e4bb 9ff5 4b3c
000003b0: c23c 923e 1ea0 5e3e c913 29be 8f95 df3c
000003c0: 3e23 98be cd7d 443e 0a59 193e 9480 413e
000003d0: b60d 88be 626d 60be 208d 48bc 144a f4bc
000003e0: adb5 333e 823d 133d 55c9 f6be a6c9 e7be
000003f0: caa2 c9be 11f9 82be 168c 53be 3488 19be
-0.32722148 -0.43838906 -0.4219793 -0.3014217 -0.05541057 -0.31144223 -0.33227336 -0.4332746
-0.40032217 -0.25686112 -0.46379614 -0.45641378 -0.1814534 -0.0645159 -0.40583652 -0.1903579
-0.47053096 -0.35158834 -0.46868974 -0.27396324 -0.029623298 -0.12401412 -0.008725953 -0.48031753
-0.3920288 0.19529475 -0.24951507 -0.1689987 -0.051040076 -0.23725185 -0.2442883 -0.11955014
0.010509057 -0.076800466 -0.24745396 0.002074842 -0.10877953 -0.14013104 -0.018755082 0.06960765
0.5050058 0.08745568 -0.07018801 0.03254539 -0.11626769 -0.05698594 -0.038253184 -0.25985196
0.11702465 -0.083852686 -0.51001287 -0.72548187 -0.6834119 -0.55465317 -0.7013941 -0.19831102
-0.23694348 -0.37668335 -0.43328983 -0.43914032 -0.4810393 -0.35314643 -0.5112993 -0.2684402
-0.38167894 -0.7984548 -0.26754412 -0.34797448 -0.36398673 -0.65348 -0.52271223 -0.5178431
-0.26344356 -0.46242857 -0.712987 -0.45095658 -0.68781793 -0.7073586 -0.5044925 -1.0090839
-0.3527757 -0.3621892 -0.18267591 -0.7453386 -0.60773677 -0.57370627 -0.6707929 -0.47641456
-0.39614388 -0.48035347 -0.6553308 -0.56093436 -0.44880533 -0.5414587 -0.73654145 -0.5995979
-0.5954866 -0.5558646 -0.41047558 -0.7174098 -0.21626613 0.02772906 -0.09217685 0.12991399
0.22307663 -0.20444624 -0.16698293 -0.32545263 -0.15672755 -0.25116995 -0.40583298 -0.3262395
-0.07948921 0.014299657 -0.36672637 0.48347688 -0.45853892 -0.26272795 -0.35876235 0.03429535
0.19517538 0.0733105 0.12381411 -0.08376574 -0.041772958 0.22571816 0.18111606 0.19416405
0.0013081927 -0.22199158 -0.11535239 0.20645757 0.20201403 0.18462837 0.27457252 0.31771606
0.2618705 0.17049229 0.040731467 0.3749518 0.27303013 0.2902221 0.15559822 0.00017117006
0.21892746 0.007629702 0.14674808 0.05486559 0.22510964 0.2644619 -0.2795985 -0.20985243
-0.31613722 -0.0661757 0.11441198 -0.062416967 -0.37845746 -0.2524853 -0.45689222 -0.23640668
-0.18447737 -0.18960556 -0.20944366 -0.021183437 -0.4017733 0.4629674 -0.5052719 -0.38229975
-0.3519794 0.064359844 -0.017490612 -0.014737969 0.102876596 -0.43717882 -0.16952178 -0.41612673
-0.44634935 -0.3771665 -0.4677137 -0.53529155 -0.21432415 -0.26398057 -0.42659873 -0.5102749
-0.25632548 -0.4319185 -0.41777414 -0.3932442 -0.38849583 -0.44984502 -0.33281732 -0.31928903
-0.43028054 -0.28427717 -0.42656314 -0.3449591 -0.20689777 -0.24168797 -0.576028 -0.42184195
-0.6093968 -0.25924712 -0.2385231 -0.10547866 -0.48903936 -0.23185258 -0.42257777 -0.2716242
-0.5246664 -0.37788326 -0.40901423 -0.31288633 -0.36315745 -0.12631047 -0.31497002 -0.07497572
-0.5616753 -0.2752576 -0.40740177 -0.1362412 -0.25779518 -0.14247042 -0.023393335 -0.20293501
-0.4729934 -0.15064618 0.02960774 0.07462882 0.10430231 -0.066060394 0.18033306 0.17056245
0.15700702 0.25737554 -0.006958826 0.012448697 0.2856198 0.21740767 -0.16511454 0.027292995
-0.29714388 0.19188614 0.14975372 0.18896705 -0.2657296 -0.21916726 -0.012240678 -0.02982048
0.17549773 0.03594733 -0.4820048 -0.45271033 -0.3938201 -0.25580648 -0.20658907 -0.14993364

solution_network.10.bias f4 [25]
00000000: e21c b9be 9db6 53bc 8ea3 d0be 4329 42bf
00000010: a034 86be e293 153e 03c8 2dbe 6c86 10bf
00000020: 0302 06bf 9da0 d7bc dffe adbe 6210 0ebe
00000030: 249c 33bf 0026 25bf e06d 30bf 259a 06bf
00000040: 92cf c83d bd24 08bf 1909 bfbe 5d7b 36bf
00000050: 444b d3be 6dc0 2bbf 334e 0dbf 92b2 ebbe
00000060: bfa6 24bf
-0.36154848 -0.012921956 -0.40749782 -0.7584421 -0.26212025 0.14607194 -0.1697083 -0.5645511
-0.5234682 -0.026321704 -0.33983514 -0.13873437 -0.70160127 -0.6451111 -0.68917656 -0.52578956
0.09805216 -0.5318106 -0.37311628 -0.7128199 -0.4126836 -0.67090493 -0.5519745 -0.46034676
-0.64316934

solution_network.12.weight f4 [3, 25]
00000000: 84c3 403e a5ea 063e e717 913d ce04 073d
00000010: 8352 513e b10f 7b3e afe9 673e d86b 003e
00000020: aec9 1d3e 6c7c 793e b8af 2a3e b9a9 4f3e
00000030: 0840 ad3d a29d 8e3d 941f 0c3d 9098 183d
00000040: 4f01 083e 1055 f13c d7cb 543d 7444 8c3c
00000050: ddc8 c03c 6a06 aa3d d39f 713c 8d2c e53d
00000060: eee8 36bd 6d00 10bd 7fe6 1e3e 5d06 75bd
00000070: 75e5 8ebc 1248 0a3e b8e6 ea3d 2d2e 01bd
00000080: fb08 c9bd 206c dcbd b1d0 93bd 1f28 7abd
00000090: e845 58bd a188 b2bd b659 7abd b819 8fbb
000000a0: c487 e53b fe0f 8c3e 955b c43c 37d2 dabc
000000b0: c7da 003c 3a6a 773d ec6b a7bd 6fc7 663c
000000c0: 2e05 a1bd 8863 b83d 3359 e9bd 2aa0 103e
000000d0: 4707 013d 45b7 1f3c 4493 22be 8e57 6f3e
000000e0: b359 37be 023c e3bc 5245 a7bd ab02 623e
000000f0: 96b9 82bd 743a ae3d 836f 423b ae9b df3c
00000100: 7be7 92bb 2a58 0fbd bef5 3b3e 1a6b 30bd
00000110: ac98 0a3e 8fc7 4abd 76f4 bcbd 6e7c 9f3c
00000120: 89ce d43c 9dc0 523d 79a8 53bb
0.18824583 0.13175447 0.07084637 0.032963566 0.20441632 0.24517705 0.22647737 0.12541139
0.15408966 0.2436387 0.16668594 0.20279588 0.084594786 0.0696366 0.034209803 0.03725487
0.13281749 0.029459506 0.05195221 0.017122485 0.02353328 0.08302005 0.014747578 0.11190138
-0.044655733 -0.035156656 0.15517615 -0.05982052 -0.017443398 0.13504055 0.11469787 -0.031538177
-0.09816166 -0.10762811 -0.07217539 -0.06107342 -0.052801043 -0.08717466 -0.06112071 -0.0043670796
0.00700471 0.2735595 0.023969451 -0.026711566 0.007864661 0.06040404 -0.08174881 0.014085635
-0.07862316 0.09003359 -0.113939665 0.14123598 0.03150108 0.009748285 -0.1587649 0.23373243
-0.17905311 -0.027738575 -0.08167519 0.2207133 -0.06383054 0.08507243 0.0029668517 0.027295914
-0.004483161 -0.03499619 0.18355462 -0.04307089 0.13534802 -0.04950672 -0.09226315 0.019468512
0.02597739 0.05145322 -0.0032296462

solution_network.12.bias f4 [3]
00000000: ee78 303d 7821 2abd 4f04 ec3d
0.043084078 -0.041535825 0.11524259
