results/case_0/noise_0.003/5_25_100_20/model.pth (torch, 21206 bytes, 16 tensors)

log_Ng_params f4 [2]
-0.07202633 0.02864638
00000000: 8a82 93bd d0ab ea3c

log_Tg_params f4 [2]
0.0888227 0.095314465
00000000: ade8 b53d 3b34 c33d

solution_network.0.weight f4 [25, 1]
-0.0069249803 -1.4988779 -0.010440019 -0.8020756 0.93116224 1.4609655 0.20570879 -1.2229769
-0.0048004985 -1.0215385 1.1120751 0.9970915 1.8044636 -1.6206326 -0.012758706 -0.006509653
0.0056131845 0.20329806 0.43021485 -1.3045874 -0.22129054 0.007856782 0.1930931 0.006184923
0.10070807
00000000: f2ea e2bb 3bdb bfbf 9d0c 2bbc d454 4dbf
00000010: a660 6e3f eb00 bb3f 53a5 523e 828a 9cbf
00000020: 804d 9dbb c6c1 82bf 7a58 8e3f 6341 7f3f
00000030: aaf8 e63f e470 cfbf e409 51bc ed4e d5bb
00000040: ceee b73b 5e2d 503e 1f45 dc3e b8fc a6bf
00000050: fd99 62be bbb9 003c 33ba 453e e5aa ca3b
00000060: 0840 ce3d

solution_network.0.bias f4 [25]
0.25958377 -0.1297436 0.86266506 0.15839832 -0.28658724 0.35144895 -0.2122933 -0.6917386
-0.25085214 0.6788021 0.07286794 -0.6425268 0.40685502 -0.39477098 1.1652286 0.20322584
0.033959277 -0.08300955 -1.1557808 0.46488103 0.7331014 -0.4523035 0.18108137 -0.09279072
-1.8614997
00000000: 2ae8 843e 82db 04be 9ed7 5c3f 2b33 223e
00000010: 90bb 92be 1ef1 b33e 6a63 59be c815 31bf
00000020: b16f 80be f9c5 2d3f c93b 953d a37c 24bf
00000030: 4d4f d03e 6c1f cabe 3626 953f 6f1a 503e
00000040: e218 0b3d e900 aabd a0f0 93bf e304 ee3e
00000050: 89ac 3b3f 5394 e7be 656d 393e 1009 bebd
00000060: 9f45 eebf

solution_network.2.weight f4 [25, 25]
-0.2509968 -0.55016774 0.04923029 -0.37749612 0.35879874 0.42323837 0.36561218 -0.4731754
0.01188808 -0.1812117 0.299951 0.4311099 0.29978025 -0.7105923 0.10885068 0.052510194
0.45806602 0.13479656 0.38776594 -0.22422586 -0.28083557 0.43713784 0.5467662 0.47027507
0.58473283 -0.6035182 -0.32066137 -0.33321545 -0.21237631 0.16625622 -0.055669006 0.3199754
-0.3769114 -0.47335684 -0.42718548 0.17541887 0.24463218 -0.062409732 -0.20608565 -0.419305
-0.6357433 0.2221177 0.2967434 0.12301185 -0.32787338 -0.18249628 0.4469714 0.20376946
0.15455347 0.68203634 -0.061543632 -0.47579566 -0.20527244 -0.41722772 0.28439215 0.37117067
0.30577195 -0.47994566 -0.103811346 -0.193053 0.10535077 0.21560593 0.3043965 -0.54654694
-0.19447258 -0.24973965 0.054426357 0.3950935 -0.007941913 -0.23446278 -0.1262564 0.41870782
0.22569862 0.395777 0.27911013 0.6350089 0.4324746 0.39065653 0.08938138 -0.048480265
0.10901588 -0.16490567 0.3367156 0.4489307 0.06599667 0.0068688844 -0.32027343 -0.14411122
0.2616108 0.52085656 0.5458955 -0.11258074 -0.17358 -0.34272903 0.42034084 0.5997517
-0.3830993 -0.108065195 -0.10988946 -0.5691507 -0.5848336 -0.19681059 -0.40020382 -0.2056703
0.1711316 0.11875324 0.26207927 -0.37227598 -0.42153537 -0.34345028 0.14859943 0.032070518
0.029155143 -0.35420352 -0.5281695 -0.53424615 0.16629308 0.04281713 0.2807034 -0.22814666
-0.19525792 0.32407773 0.17937541 0.13054913 0.5966625 -0.58514374 -0.27403823 -0.46809387
-0.22007686 0.33582518 -0.10948508 0.101124406 -0.56964254 -0.50965536 -0.42367095 0.33915597
0.5107163 0.20201544 -0.5576519 -0.46099666 -0.6311611 0.28035566 0.20765641 0.375264
-0.5763794 -0.32470858 0.2966334 -0.059381537 0.19608071 0.6780575 -0.21803895 -0.6062755
-0.08469376 -0.26036495 0.58352226 0.6478858 0.26493704 -0.2598871 -0.17569311 -0.4675446
0.5245972 0.41039577 0.32133976 -0.74071044 0.016735176 -0.1340039 0.45412928 0.265533
0.40139586 -0.35496432 -0.09072752 0.3209251 0.4735003 0.4620794 0.41920346 0.70705676
0.4661905 0.7165467 0.22637478 -0.30569237 0.18192847 -0.29987583 0.169106 0.5169227
0.0922 0.004488445 -0.0507022 0.043656398 0.41421965 0.72818977 0.5026162 -0.24482605
-0.31154802 -0.01190146 0.16302101 0.288987 -0.46224374 -0.22064951 -0.18733233 -0.6555386
0.71094 0.30423525 0.7602426 0.39044523 -0.20982173 0.13031064 -0.29959223 0.37380975
0.5725705 0.29015484 -0.16727921 -0.1912525 -0.0992406 0.17978062 0.65575206 0.69563997
-0.1265694 -0.3488649 -0.06910579 0.23868102 0.6973304 -0.44728467 -0.11710322 -0.23917827
-0.5123593 -0.06865418 -0.12713686 -0.34397015 -0.20003262 0.23839924 0.11175714 0.07510326
-0.24483217 -0.34065235 -0.35159746 0.35278764 0.33549312 0.057849247 -0.48393694 -0.2569793
-0.14037341 0.26573667 0.19016917 0.048340715 -0.20112155 -0.23481551 0.32672533 0.22046591
0.3129996 0.5226993 0.675276 0.34754935 0.59853923 0.19514368 -0.012154924 -0.026668921
00000000: a782 80be cbd7 0cbf b3a5 493d 2c47 c1be
00000010: 78b4 b73e b3b2 d83e 8531 bb3e 0c44 f2be
00000020: 39c6 423c 8f8f 39be 2d93 993e 70ba dc3e
00000030: cc7c 993e 61e9 35bf 1bed de3d ee14 573d
00000040: a187 ea3e 1c08 0a3e 4289 c63e 779b 65be
00000050: aec9 8fbe 88d0 df3e dff8 0b3f e5c7 f03e
00000060: 0db1 153f 2b80 1abf ba2d a4be 379b aabe
00000070: 2d79 59be 123f 2a3e 2f05 64bd d1d3 a33e
00000080: 88fa c0be d45b f2be 0eb8 dabe 01a1 333e
00000090: dc80 7a3e 59a1 7fbd 1e08 53be 25af d6be
000000a0: 13c0 22bf d372 633e c0ee 973e a3ed fb3d
000000b0: 05df a7be 4ee0 3abe 6fd9 e43e f1a8 503e
000000c0: 4443 1e3e ef99 2e3f 2d15 7cbd 7d9b f3be
000000d0: f032 52be df9e d5be d99b 913e 150a be3e
000000e0: 248e 9c3e 70bb f5be 0b9b d4bd b0af 45be
000000f0: 25c2 d73d cdc7 5c3e dcd9 9b3e 80ea 0bbf
00000100: d223 47be c0bb 7fbe 2cee 5e3d b249 ca3e
00000110: cc1e 02bc 0317 70be 5c49 01be df60 d63e
00000120: 8a1d 673e 48a3 ca3e 86e7 8e3e f18f 223f
00000130: 506d dd3e 2204 c83e 960d b73d 3e93 46bd
00000140: b843 df3d 08dd 28be fd65 ac3e 3fda e53e
00000150: 4329 873d 6114 e13b e1fa a3be e491 13be
00000160: daf1 853e db56 053f cfbf 0b3f bb90 e6bd
00000170: f5be 31be 2e7a afbe ea36 d73e 5489 193f
00000180: 9725 c4be 4951 ddbd ba0d e1bd dcb3 11bf
00000190: a8b7 15bf b788 49be 84e7 ccbe 3c9b 52be
000001a0: 1f3d 2f3e e634 f33d 412f 863e f59a bebe
000001b0: 7cd3 d7be b7d8 afbe 732a 183e 605c 033d
000001c0: c4d6 ee3c 2a5a b5be 1e36 07bf 5bc4 08bf
000001d0: bc48 2a3e 0461 2f3d 5bb8 8f3e 479f 69be
000001e0: b1f1 47be 84ed a53e 30ae 373e acae 053e
000001f0: e0be 183f fbcb 15bf bd4e 8cbe 00aa efbe
00000200: d45b 61be 47f1 ab3e b739 e0bd 501a cf3d
00000210: 18d4 11bf c678 02bf 66eb d8be daa5 ad3e
00000220: 4ebe 023f 23dd 4e3e 46c2 0ebf c107 ecbe
00000230: c693 21bf c78a 8f3e e2a3 543e 9a22 c03e
00000240: 9a8d 13bf 3440 a6be 55e0 973e 0e3a 73bd
00000250: 62c9 483e 2d95 2d3f 9a45 5fbe df34 1bbf
00000260: ec73 adbd 8e4e 85be b761 153f d8db 253f
00000270: d4a5 873e ec0f 85be e5e8 33be 0162 efbe
00000280: 014c 063f 651f d23e a586 a43e 339f 3dbf
00000290: 3518 893c 5238 09be a283 e83e f1f3 873e
000002a0: c283 cd3e e2bd b5be 5acf b9bd 4b50 a43e
000002b0: a26e f23e ac95 ec3e d6a1 d63e ac01 353f
000002c0: 85b0 ee3e 9b6f 373f cace 673e b683 9cbe
000002d0: 754b 3a3e 5389 99be 202a 2d3e 0c55 043f
000002e0: 5bd3 bc3d ce13 933b 1cad 4fbd 0dd1 323d
000002f0: 9914 d43e a56a 3a3f 75ab 003f aeb3 7abe
00000300: 3983 9fbe 57fe 42bc fbee 263e 1bf6 933e
00000310: 36ab ecbe f2f1 61be 0cd4 3fbe 61d1 27bf
00000320: 2a00 363f b9c4 9b3e 429f 423f 70e8 c73e
00000330: 82db 56be 2770 053e 2764 99be fe63 bf3e
00000340: fb93 123f 2d8f 943e 3e4b 2bbe b2d7 43be
00000350: a83e cbbd 6918 383e 5edf 273f 7615 323f
00000360: 699b 01be 6c9e b2be 5687 8dbd cc68 743e
00000370: 3f84 323f 7f02 e5be d0d3 efbd 26eb 74be
00000380: fb29 03bf 909a 8cbd 2a30 02be db1c b0be
00000390: 5ad5 4cbe ee1e 743e ede0 e43d bdcf 993d
000003a0: 49b5 7abe fc69 aebe 9504 b4be 95a0 b43e
000003b0: c1c5 ab3e 55f3 6c3d 95c6 f7be ca92 83be
000003c0: 0cbe 0fbe a30e 883e b5bb 423e ea00 463d
000003d0: cff2 4dbe 7a73 70be 8b48 a73e d1c1 613e
000003e0: 7c41 a03e 9fcf 053f e3de 2c3f fdf1 b13e
000003f0: de39 193f bfd3 473e 7225 47bc c878 dabc

solution_network.2.bias f4 [25]
-0.12965229 -0.26320088 0.2263961 0.13431592 0.008223643 -0.22144096 0.22179914 0.40162644
0.34374616 -0.2732135 0.03604559 0.13226973 0.29696283 0.1973798 0.29117122 0.34938458
0.072393894 0.028140921 0.02361131 0.052934557 0.35796303 0.24139652 0.077863716 -0.14969987
-0.0037811263
00000000: 92c3 04be 44c2 86be 61d4 673e 1d8a 093e
00000010: 75bc 063c 6bc1 62be 501f 633e fba1 cd3e
00000020: 7fff af3e a4e2 8bbe 8aa4 133d b771 073e
00000030: 830b 983e ee1d 4a3e 6514 953e 89e2 b23e
00000040: 4043 943d ca87 e63c 826c c13c e8d1 583d
00000050: ee46 b73e a630 773e 0377 9f3d ec4a 19be
00000060: c6cc 77bb

solution_network.4.weight f4 [25, 25]
0.300084 0.29751304 0.3934057 -0.07874289 0.22037739 0.67541397 0.4124947 -0.26316443
-0.4744494 0.41351593 -0.4033912 0.28498414 -0.3298787 -0.2910261 -0.22833535 -0.18687145
-0.53492063 -0.1715008 -0.37679785 0.1104784 -0.26058304 -0.35997263 -0.3077333 0.5711258
-0.2933684 -0.11816245 -0.42502713 -0.45270526 0.42965716 -0.29757795 -0.60567415 -0.27912515
0.39533138 0.2861037 -0.26896954 0.17922951 -0.354764 0.5635083 0.5325182 0.40585744
0.3414664 0.1309658 0.085125476 0.42071742 -0.20628273 0.50565183 0.2985899 0.16126832
-0.33576906 0.25771543 -0.62176144 -0.35252577 -0.27071568 0.3234568 -0.35849437 -0.48306042
-0.5271696 0.058459338 0.35951695 -0.26656738 0.14593606 -0.4932917 0.34369674 0.22964047
0.0018355027 0.16727051 0.2321904 0.18057722 0.12603909 -0.5240284 0.2822452 0.36216342
0.31911394 -0.2536235 0.28531033 -0.37889606 -0.48491615 -0.27974093 0.15891582 -0.20615287
-0.32503545 -0.4135606 0.28128242 0.06082115 -0.30962467 0.1971719 -0.35390693 0.3958756
0.38444266 0.13043663 0.2881886 0.24375723 0.30172777 0.009059488 -0.2779074 0.14154755
0.23886038 0.2768247 -0.47935262 0.50974303 -0.17165259 -0.30550602 -0.36169124 0.57430345
-0.54611707 -0.46353048 -0.1206889 0.68667144 0.5149903 -0.3454398 0.6652717 -0.16697575
0.34079188 0.09305267 0.25485274 0.62225205 0.51155865 0.40300286 0.5043585 -0.24542835
0.3114745 0.46229434 0.2301364 -0.22934155 0.25178558 0.24926245 0.30181625 0.23336497
-0.4738225 0.27399647 0.23375314 0.33901918 -0.45763123 -0.7795416 0.25796735 -0.4125416
0.21650922 -0.5546517 -0.48334628 -0.25891858 -0.740738 -0.5432502 -0.45486748 -0.524454
0.31773007 -0.52554613 -0.27002499 -0.2796521 0.33127657 -0.19114065 -0.060963012 -0.49322563
-0.35414037 0.40150356 -0.48076746 -0.2748356 -0.14875971 0.53520006 0.7011214 -0.20596616
0.64321655 -0.31828517 0.43033785 0.5672721 0.5884081 0.58658683 0.5162051 0.17697439
0.58646727 -0.16558993 0.5072706 0.46483105 0.5338512 -0.40494478 0.21185783 0.31646237
0.5391847 0.2931851 -0.24233104 0.58659405 0.482895 0.41480252 -0.3529292 -0.15349461
0.4102958 -0.37525895 0.15326917 -0.3784055 -0.4872531 -0.2611272 -0.2858534 -0.45219004
-0.19009204 -0.3047273 0.1920434 -0.45682603 -0.08731928 -0.13923271 0.6575302 -0.36502805
-0.86956066 -0.7132011 -0.63205266 0.05182406 -0.64185274 -0.459739 -0.7104562 0.27989706
0.026366713 -0.687547 0.13013878 -0.8663498 0.098854154 0.3559331 -0.06389694 0.12469292
0.21801484 0.2580584 -0.020230047 -0.84658015 0.16797686 0.1515491 0.41933587 -0.42594957
0.50586987 -0.8668948 -0.46535507 -0.50899816 0.06824183 -0.7297048 -0.647862 -0.5856041
0.1599468 0.049904946 -0.63649195 0.16594996 -0.67840344 0.06596755 0.32447955 -0.10485244
0.2558335 0.37367278 -0.01787445 0.18881851 -0.92353183 0.13197665 0.054767426 0.2263349
-0.5950136 0.6169955 -0.26256487 -0.5064074 -0.1924763 0.27092135 -0.63636154 -0.40829402
00000000: 9ca4 993e a153 983e 796c c93e f443 a1bd
00000010: 9caa 613e eee7 2c3f 8132 d33e 7dbd 86be
00000020: 08eb f2be 5cb8 d33e 4b89 cebe 71e9 913e
00000030: dce5 a8be 5f01 95be bed0 69be 3b5b 3fbe
00000040: 8ff0 08bf e89d 2fbe a6eb c0be 8042 e23d
00000050: 246b 85be 554e b8be 388f 9dbe 4d35 123f
00000060: 6234 96be 28ff f1bd 289d d9be fcc8 e7be
00000070: 06fc db3e 235c 98be 760d 1bbf 7ee9 8ebe
00000080: e068 ca3e 2f7c 923e 60b6 89be f187 373e
00000090: a1a3 b5be 1442 103f 1d53 083f 8ccc cf3e
000000a0: afd4 ae3e e61b 063e 4456 ae3d 4668 d73e
000000b0: c83b 53be 6672 013f c6e0 983e 8623 253e
000000c0: ece9 abbe 47f3 833e c22b 1fbf 427e b4be
000000d0: 3f9b 8abe 219c a53e 938c b7be b253 f7be
000000e0: 96f4 06bf 0f73 6f3d 9b12 b83e 857b 88be
000000f0: 4370 153e bb90 fcbe 05f9 af3e df26 6b3e
00000100: 4095 f03a f648 2b3e 52c3 6d3e 3ce9 383e
00000110: 6410 013e ba26 06bf 7182 903e 7c6d b93e
00000120: e762 a33e f0da 81be 3214 923e aafe c1be
00000130: ee46 f8be 343a 8fbe d4ba 223e bd19 53be
00000140: 0c6b a6be 37be d3be 4004 903e 991f 793d
00000150: 2087 9ebe 6ee7 493e 4a33 b5be 35b0 ca3e
00000160: abd5 c43e 2e91 053e 758d 933e 7f9b 793e
00000170: 107c 9a3e 3f6e 143c e149 8ebe d7f1 103e
00000180: d197 743e f8bb 8d3e b56d f5be 857e 023f
00000190: b2c5 2fbe 496b 9cbe 982f b9be 8d05 133f
000001a0: 54ce 0bbf de53 edbe be2b f7bd b3c9 2f3f
000001b0: 68d6 033f 7cdd b0be 3f4f 2a3f b1fb 2abe
000001c0: 467c ae3e 6692 be3d 0f7c 823e e94b 1f3f
000001d0: 82f5 023f 6456 ce3e a31d 013f 9251 7bbe
000001e0: 9679 9f3e d8b1 ec3e e0a8 6b3e 83d8 6abe
000001f0: 0aea 803e a83e 7f3e a987 9a3e 3af7 6e3e
00000200: dd98 f2be 4449 8c3e fc5c 6f3e ec93 ad3e
00000210: a44e eabe 0a90 47bf 4c14 843e a738 d3be
00000220: 98b4 5d3e a7fd 0dbf 2a79 f7be fa90 84be
00000230: 01a1 3dbf 7212 0bbf 64e4 e8be 9e42 06bf
00000240: 84ad a23e 318a 06bf b740 8abe 8f2e 8fbe
00000250: 159d a93e 60ba 43be 5ab4 79bd 1288 fcbe
00000260: e351 b5be e091 cd3e 2727 f6be 40b7 8cbe
00000270: 7754 18be df02 093f b17c 333f cbe8 52be
00000280: d7a9 243f 46f6 a2be 3e55 dc3e bf38 113f
00000290: eaa1 163f 8e2a 163f 0426 043f c638 353e
000002a0: b822 163f 6890 29be 7cdc 013f 56fe ed3e
000002b0: 79aa 083f ec54 cfbe 42f1 583e 5b07 a23e
000002c0: 0208 0a3f 5c1c 963e a125 78be 072b 163f
000002d0: 033e f73e ff60 d43e 23b3 b4be b12d 1dbe
000002e0: 4b12 d23e f121 c0be 98f2 1c3e 5ebe c1be
000002f0: 3d79 f9be 77b2 85be 605b 92be 7485 e7be
00000300: 7da7 42be 3705 9cbe 06a7 443e 1ae5 e9be
00000310: 73d4 b2bd 0593 0ebe e653 283f f5e4 babe
00000320: 879b 5ebf 5994 36bf 34ce 21bf 7745 543d
00000330: 7650 24bf e962 ebbe 75e0 35bf ab4e 8f3e
00000340: 01ff d73c 1503 30bf 1a43 053e 1ac9 5dbf
00000350: 0c74 ca3d dd3c b63e 66dc 82bd 005f ff3d
00000360: 483f 5f3e 3b20 843e 7cb9 a5bc 7ab9 58bf
00000370: 2002 2c3e b02f 1b3e 31b3 d63e 1016 dabe
00000380: b080 013f d1ec 5dbf 0543 eebe b44d 02bf
00000390: 5fc2 8b3d efcd 3abf 49da 25bf 26ea 15bf
000003a0: 18c9 233e 2169 4c3d 23f1 22bf c9ee 293e
000003b0: d9ab 2dbf ff19 873d 2f22 a63e e0bc d6bd
000003c0: 9cfc 823e 0a52 bf3e 706d 92bc a459 413e
000003d0: 956c 6cbf e324 073e cf53 603d 56c4 673e
000003e0: d052 18bf 6bf3 1d3f e76e 86be eaa3 01bf
000003f0: 8218 45be 34b6 8a3e 97e8 22bf ea0b d1be

solution_network.4.bias f4 [25]
0.30878556 0.020044094 -0.11699097 -0.03594143 -0.3558138 0.27796978 -0.13443479 0.18566436
-0.06621716 -0.13966824 -0.16009595 0.224665 0.051687356 0.050095014 0.19309181 -0.11166242
-0.309571 -0.22405374 0.0054662297 0.03144507 0.13484542 -0.20024255 0.13500558 0.09081322
0.17259154
00000000: 2419 9e3e 8333 a43c f698 efbd 5237 13bd
00000010: 3a2d b6be 0e52 8e3e 46a9 09be cc1e 3e3e
00000020: dd9c 87bd 3105 0fbe 31f0 23be 950e 663e
00000030: 1fb6 533d 6e30 4d3d dcb9 453e 44af e4bd
00000040: 1780 9ebe 586e 65be 0f1e b33b 8ccc 003d
00000050: eb14 0a3e 620c 4dbe e73e 0a3e 48fc b93d
00000060: d6bb 303e

solution_network.6.weight f4 [25, 25]
0.17618327 -0.83334476 -0.340053 -0.62390625 -0.9008606 0.65338457 -0.91642773 0.3428398
-0.20090163 -0.5252525 -0.82119185 -0.01428242 -0.75018406 0.3210498 0.6603217 -0.28789976
-0.6794666 -0.8759714 -0.6359013 -0.69582444 0.61098933 -0.79729015 -0.059021257 0.22586651
0.11603166 0.07745904 -0.33463946 -0.023426853 -0.4410669 -0.23849384 0.1811349 -0.16923545
0.17956188 -0.24750313 -0.48401907 -0.04136938 0.027165946 -0.18560493 -0.015050381 0.5365015
-0.42957768 -0.265604 -0.37468114 -0.4169731 -0.40530384 0.37607563 -0.39557436 0.10977178
0.23810615 0.2716041 0.14229013 -0.28883424 -0.11763887 -0.21224807 0.026775165 0.33514956
-0.22131082 0.29273108 -0.3383018 -0.16610657 0.11187654 0.35416263 -0.2598216 -0.0346461
0.28746614 -0.45193928 -0.22284366 -0.18603756 -0.16284236 -0.15675102 0.35032415 0.00033016875
0.4867902 0.09809028 0.2541083 0.4723733 -0.15531819 -0.29371682 -0.2185718 -0.17705458
0.26499933 -0.24710885 0.35780233 -0.35168344 -0.36748502 0.05530966 0.41612878 -0.18839726
0.062959805 0.33854058 -0.42868894 -0.008077503 -0.038042292 -0.041089248 -0.29632246 0.37229854
-0.025522057 0.31797293 0.27563447 0.07411503 -0.39797124 0.44958723 0.0767755 0.19195674
0.64092845 -0.6280607 0.7472742 -0.36427084 0.20906854 -0.06720899 0.72656053 -0.13564461
0.62847745 0.114605024 -0.40232083 0.25546908 0.6181284 0.48895428 0.63543844 0.5706281
-0.5461881 0.6369088 -0.12133421 -0.10301751 0.24122334 -0.2383111 0.27082625 -0.09146301
0.14092371 0.2428007 -0.4747762 0.46017185 -0.083187886 0.023960918 0.110778324 0.069612466
-0.1905638 0.29359975 0.106650986 -0.5167633 0.09578914 0.31711856 0.06500158 0.29208353
0.29030094 -0.5337034 0.41787824 -0.2115016 0.08633458 -0.085788056 0.5914364 0.03583142
-0.53160155 -0.4728139 -0.24597357 0.3182684 0.09453419 0.20315129 -0.6175396 -0.66001815
0.1824198 0.27335748 -0.24682966 0.09106289 0.078318454 -0.16321674 0.064274155 -0.021181652
-0.18938506 -0.12174617 0.05748062 0.08254554 0.3836813 0.35157892 0.25907075 0.43922076
-0.68322784 -0.31645614 -0.42233086 -0.58527136 0.57247406 -0.737002 0.37825364 -0.114575766
-0.19034462 -0.5324839 0.06604338 -0.55801606 -0.098820336 0.6247901 -0.32849842 -0.59846276
-0.4280394 -0.7046967 -0.42986244 0.6998591 -0.5883092 0.18063125 0.37333634 0.2133603
0.9086936 -0.8320125 -0.9248829 -0.8335182 -0.70283955 0.93928343 -0.57403964 0.9127712
-0.44490674 -0.4481212 -0.7119871 0.5792975 -0.8102888 0.5803129 0.9074029 -0.4798751
-0.47478637 -0.8060687 -0.28793472 -0.6097124 0.7896172 -0.5075057 0.50933456 0.70380175
0.51074725 -0.43724373 0.21565343 0.4579562 0.29221463 -0.09852718 -0.28808573 0.15964133
-0.51711464 0.51049596 0.45861265 0.07287469 -0.49884984 0.2914819 -0.028521094 -0.39343697
0.5042351 0.02824845 0.022764837 -0.029324507 0.2122891 -0.29691583 0.016600069 -0.52624345
-0.38770366 -0.5667326 -0.19330636 -0.31936258 -0.3485737 -0.42131162 0.14500535 -0.66080683
00000000: 6369 343e 1556 55bf 6d1b aebe 52b8 1fbf
00000010: cd9e 66bf 3644 273f 029b 6abf b388 af3e
00000020: 28b9 4dbe f376 06bf a139 52bf d000 6abc
00000030: 100c 40bf a460 a43e d80a 293f 9967 93be
00000040: 86f1 2dbf a93f 60bf 6dca 22bf 8d21 32bf
00000050: cc69 1c3f 351b 4cbf 46c0 71bd 8d49 673e
00000060: 02a2 ed3d d8a2 9e3d dd55 abbe ace9 bfbc
00000070: 85d3 e1be bb37 74be 6d7b 393e 0f4c 2dbe
00000080: 12df 373e 7671 7dbe 59d1 f7be f072 29bd
00000090: 1e8b de3c 380f 3ebe e095 76bc 2a58 093f
000000a0: 9bf1 dbbe 3ffd 87be 35d6 bfbe 807d d5be
000000b0: fc83 cfbe fc8c c03e b988 cabe 07d0 e03d
000000c0: 19d2 733e b10f 8b3e 81b4 113e 15e2 93be
000000d0: a6ec f0bd 8f57 59be 9757 db3c b998 ab3e
000000e0: 4e9f 62be d9e0 953e e535 adbe d717 2abe
000000f0: 871f e53d ce54 b53e 5607 85be 12e9 0dbd
00000100: c32e 933e 9664 e7be 2131 64be a180 3ebe
00000110: 26c0 26be 5783 20be b05d b33e 801a ad39
00000120: 913c f93e 8fe3 c83d 7c1a 823e eada f13e
00000130: bb0b 1fbe 0d62 96be 49d1 5fbe cc4d 35be
00000140: fead 873e 1a0a 7dbe de31 b73e da0f b4be
00000150: ff26 bcbe 628c 623d d50e d53e 36eb 40be
00000160: 12f1 803d 3155 ad3e 1e7d dbbe 8157 04bc
00000170: 3cd2 1bbd 334d 28bd 94b7 97be ea9d be3e
00000180: a213 d1bc 59cd a23e f61f 8d3e 9fc9 973d
00000190: e3c2 cbbe 4c30 e63e 793c 9d3d 4f90 443e
000001a0: e313 243f 96c8 20bf 5d4d 3f3f b581 babe
000001b0: 1016 563e dea4 89bd dfff 393f 6ce6 0abe
000001c0: e6e3 203f 0ab6 ea3d fffc cdbe d8cc 823e
000001d0: aa3d 1e3f 3758 fa3e 18ac 223f af14 123f
000001e0: fcd2 0bbf 750c 233f 127e f8bd d8fa d2bd
000001f0: 4003 773e d307 74be bda9 8a3e f550 bbbd
00000200: 4e4e 103e bfa0 783e de15 f3be a59b eb3e
00000210: 695e aabd b049 c43c bfdf e23d fb90 8e3d
00000220: 2823 43be b552 963e d56b da3d 9a4a 04bf
00000230: 192d c43d 5d5d a23e 8c1f 853d f98b 953e
00000240: 53a2 943e c9a0 08bf 23f4 d53e e093 58be
00000250: 2fd0 b03d a6b1 afbd 6068 173f f8c3 123d
00000260: 0a17 08bf aa14 f2be 7fe0 7bbe 13f4 a23e
00000270: 249b c13d e406 503e 1317 1ebf f3f6 28bf
00000280: 42cc 3a3e 83f5 8b3e eac0 7cbe 2e7f ba3d
00000290: 6d65 a03d 4a22 27be 2ba2 833d 2585 adbc
000002a0: 28ee 41be 0e56 f9bd cc70 6b3d a30d a93d
000002b0: e071 c43e 2702 b43e eca4 843e 8be1 e03e
000002c0: 05e8 2ebf 8a06 a2be c03b d8be 58d4 15bf
000002d0: a98d 123f 2aac 3cbf 76aa c13e b3a6 eabd
000002e0: b3e9 42be dd50 08bf c041 873d 24da 0ebf
000002f0: 5162 cabd 3ef2 1f3f f230 a8be db34 19bf
00000300: fb27 dbbe 0167 34bf ee16 dcbe f729 333f
00000310: 6f9b 16bf 66f7 383e f125 bf3e 1f7b 5a3e
00000320: 25a0 683f c5fe 54bf 20c5 6cbf 7361 55bf
00000330: 4bed 33bf e174 703f 43f4 12bf 60ab 693f
00000340: d1ca e3be 2470 e5be c944 36bf d74c 143f
00000350: 166f 4fbf 638f 143f 8e4b 683f 30b2 f5be
00000360: 3317 f3be 855a 4ebf 2e6c 93be 1d16 1cbf
00000370: 5a24 4a3f e5eb 01bf c063 023f 5a2c 343f
00000380: 55c0 023f 69de dfbe 41d4 5c3e 3c79 ea3e
00000390: 289d 953e 9ec8 c9bd f97f 93be 0479 233e
000003a0: a061 04bf ddaf 023f 47cf ea3e 533f 953d
000003b0: 3f69 ffbe 1e3d 953e 12a5 e9bc 9270 c9be
000003c0: 8d15 013f 4b69 e73c 537d ba3c f339 f0bc
000003d0: 5062 593e 5a05 98be defc 873c e4b7 06bf
000003e0: 1881 c6be 6315 11bf 1af2 45be 7e83 a3be
000003f0: 4178 b2be 28b6 d7be 487c 143e a32a 29bf

solution_network.6.bias f4 [25]
0.16525717 -0.13638823 0.062701285 -0.21794257 0.07698109 0.09547693 0.08469305 0.009352683
0.47354302 -0.27725795 0.14330672 0.05959392 0.15722294 -0.24290031 0.124118514 -0.26653126
-0.010884797 0.007876847 0.035912868 -0.06760264 -0.2766754 0.06495547 0.08386061 0.20650719
0.2940251
00000000: 2d39 293e 5ba9 0bbe 8869 803d 562c 5fbe
00000010: 43a8 9d3d 6989 c33d 8d73 ad3d ff3b 193c
00000020: 3b74 f23e c1f4 8dbe ffbe 123e c118 743d
00000030: 0dff 203e dcba 78be d931 fe3d c976 88be
00000040: 2656 32bc e40d 013c 5f19 133d 4173 8abd
00000050: 66a8 8dbe 6007 853d 1dbf ab3d 9f76 533e
00000060: 758a 963e

solution_network.8.weight f4 [25, 25]
-0.5081805 -0.08582972 -0.08546783 0.014194917 0.47536582 0.12995371 0.33920148 -0.47868538
-0.75426966 -0.3468076 0.14788221 -0.7280746 -0.22658898 -0.2686625 0.39942256 0.062332634
-0.58798397 -0.6465778 0.14565133 -0.25879493 -0.6514544 -0.13966082 0.26393285 0.21144639
0.047677424 0.22473404 -0.1714305 -0.010262815 -0.067523554 -0.1830485 0.21626554 -0.14538546
0.09330564 0.32979158 0.2582813 -0.050634228 0.10647975 0.15081926 0.31377155 -0.017836776
0.22241047 0.09403276 0.2921692 -0.22075535 0.06354875 -0.028835973 -0.1596119 -0.20377585
-0.088529736 -0.1725491 -0.29469606 -0.37425372 -0.26866975 -0.20576651 -0.019443488 0.10522748
-0.16230167 -0.17641906 -0.17478155 0.29767445 -0.2070446 -0.17323306 -0.35888013 0.43781593
-0.22938924 -0.07067269 -0.3790691 0.064803615 -0.32025382 -0.14878336 0.023339456 -0.3190226
-0.04925016 -0.3239696 -0.2266801 -0.14211138 -0.4046546 -0.086015195 -0.15234184 0.08847469
-0.07145957 -0.37181833 -0.11200423 -0.08553935 0.35969168 -0.19478175 -0.2629781 -0.11718692
0.25050429 -0.19889897 -0.25104794 -0.41642517 0.070200026 -0.4188953 0.0008226131 -0.29671043
-0.26687995 -0.12667549 -0.32145217 -0.48895773 -0.55510366 -0.1058251 0.17609859 0.10741246
0.58395064 0.09089337 0.19745189 -0.18909328 -0.7204008 -0.05917835 0.31586653 -0.25829536
-0.2564816 0.042577595 0.032725874 -0.015899826 -0.54242563 -0.21029605 -0.12335184 0.06988419
-0.29747498 -0.09170297 0.3635059 -0.028841691 0.00484416 -0.3678069 -0.06710074 -0.0060307416
0.06091635 0.16108064 0.27246916 -0.24535705 -0.41838086 -0.42240813 0.34840447 0.22813903
-0.3648901 -0.19789352 0.3108461 0.054607462 -0.2269738 -0.102323 -0.17624885 -0.1294545
0.1461358 -0.1426413 -0.25700936 -0.18564083 -0.032622956 -0.15894002 -0.30273998 -0.34770682
0.048708696 -0.22678226 0.30344328 0.1900199 -0.014491085 -0.18096422 -0.16051559 0.248632
0.03939793 -0.33222938 -0.32784343 0.2741013 0.08613088 -0.19287407 -0.3044471 -0.2827756
-0.16921507 0.11678806 -0.07141436 -0.26683083 -0.027688578 -0.17116296 -0.16574141 -0.39330015
-0.5159902 -0.3568606 -0.61765665 0.094294876 0.11898187 -0.50071204 -0.5073836 0.06428607
0.6737594 -0.0685488 -0.32817525 -0.39985427 0.68507105 -0.5152837 -0.26047847 -0.4610815
-0.047875833 -0.5848684 0.10902642 -0.26830924 -0.5448263 -0.23994218 -0.6860012 -0.47402874
-0.5867474 -0.35502565 -0.2571262 -0.1933185 0.26691967 0.069352575 0.13840824 -0.52019197
-0.36754987 -0.1506417 0.10873089 -0.2147489 -0.29901826 0.033966783 -0.099539645 -0.13586827
-0.5007456 -0.2526021 -0.19153501 -0.29626545 -0.23244417 0.043266006 0.029114543 -0.079280674
-0.04735039 -0.5851033 -0.14586587 0.1323753 0.09835136 0.40298927 -0.07671151 0.2971667
-0.23733534 -0.4863792 -0.1675849 0.22246164 -0.4486792 -0.18597527 -0.34609744 -0.035211507
-0.25948045 -0.5154866 -0.4851419 0.13505116 -0.23412538 -0.34631497 -0.29848513 -0.042633604
0.12082014 0.12330295 -0.58677155 -0.26622498 0.1639259 0.009145155 0.27873126 0.24181162
00000000: 1e18 02bf 7ec7 afbd c209 afbd cc91 683c
00000010: 2663 f33e 9612 053e d1ab ad3e 4016 f5be
00000020: d117 41bf c490 b1be 6f6e 173e 1963 3abf
00000030: f106 68be 228e 89be 1d81 cc3e 8150 7f3d
00000040: 1e86 16bf 1f86 25bf 9f25 153e c580 84be
00000050: b7c5 26bf 3f03 0fbe 3522 873e 6785 583e
00000060: 6749 433d ae20 663e 7a8b 2fbe 5e25 28bc
00000070: ca49 8abd 1171 3bbe b774 5d3e eddf 14be
00000080: 0717 bf3d 71da a83e 723d 843e d665 4fbd
00000090: 0e12 da3d 5d70 1a3e aaa6 a03e 6e1e 92bc
000000a0: 92bf 633e 3f94 c03d 3497 953e b10d 62be
000000b0: d925 823d 6b39 ecbc 4d71 23be 9eaa 50be
000000c0: 144f b5bd b6b0 30be 67e2 96be 2f9e bfbe
000000d0: 158f 89be 75b4 52be f347 9fbc 8181 d73d
000000e0: 6932 26be 33a7 34be eff9 32be c968 983e
000000f0: 8003 54be 0264 31be 23bf b7be 6929 e03e
00000100: 03e5 6abe d8bc 90bd 5815 c2be c2b7 843d
00000110: 4ff8 a3be aa5a 18be 6332 bf3c ee56 a3be
00000120: 89ba 49bd 58df a5be d41e 68be a585 11be
00000130: e32e cfbe bc28 b0bd 80ff 1bbe 3832 b53d
00000140: 6559 92bd f95e bebe 7962 e5bd 412f afbd
00000150: 8229 b83e de74 47be 11a5 86be b2ff efbd
00000160: 1942 803e 2cac 4bbe 5b89 80be ae35 d5be
00000170: 08c5 8f3d 7279 d6be a1a4 573a 6eea 97be
00000180: 7da4 88be 38b7 01be 6195 a4be ab58 fabe
00000190: 461b 0ebf d4ba d8bd 3053 343e 10fb db3d
000001a0: ca7d 153f 4e26 ba3d d430 4a3e aba1 41be
000001b0: 306c 38bf ff64 72bd 42b9 a13e 4a3f 84be
000001c0: 8e51 83be d865 2e3d 910b 063d 5a40 82bc
000001d0: 68dc 0abf d957 57be e49f fcbd 711f 8f3d
000001e0: a44e 98be c4ce bbbd 721d ba3e 6945 ecbc
000001f0: c2bb 9e3b 3051 bcbe 1d6c 89bd 879d c5bb
00000200: 6c83 793d 53f2 243e 1481 8b3e e13e 7bbe
00000210: 0436 d6be e145 d8be 1262 b23e 479d 693e
00000220: e0d2 babe 99a4 4abe 3827 9f3e 13ac 5f3d
00000230: d26b 68be b98e d1bd 947a 34be b88f 04be
00000240: a0a4 153e 9010 12be bb96 83be a118 3ebe
00000250: a69f 05bd 2cc1 22be bc00 9bbe a106 b2be
00000260: c582 473d 9c39 68be eb5c 9b3e 9494 423e
00000270: 046c 6dbc af4e 39be 335e 24be 6399 7e3e
00000280: b95f 213d f819 aabe 18db a7be 0157 8c3e
00000290: 6365 b03d c880 45be 7ee0 9bbe f7c7 90be
000002a0: b746 2dbe 942e ef3d b141 92bd 0d9e 88be
000002b0: 28d3 e2bc 5845 2fbe 1eb8 29be a35e c9be
000002c0: ef17 04bf 6fb6 b6be bf1e 1ebf ac1d c13d
000002d0: c4ac f33d aa2e 00bf e4e3 01bf 6aa8 833d
000002e0: 7f7b 2c3f 5063 8cbd 9606 a8be b3b9 ccbe
000002f0: d160 2f3f a2e9 03bf 6f5d 85be e012 ecbe
00000300: 7319 44bd efb9 15bf 3e49 df3d d45f 89be
00000310: bd79 0bbf 67b3 75be c69d 2fbf e5b3 f2be
00000320: 1435 16bf ecc5 b5be 0ca6 83be 49f5 45be
00000330: b2a9 883e b908 8e3d e4ba 0d3e 4d2b 05bf
00000340: 7f2f bcbe d141 1abe 4dae de3d 23e7 5bbe
00000350: ec18 99be c120 0b3d 71db cbbd 0d21 0bbe
00000360: dd30 00bf 1055 81be c121 44be 1bb0 97be
00000370: d805 6ebe b237 313d 9f81 ee3c e85d a2bd
00000380: 7cf2 41bd 54c9 15bf dd5d 15be 648d 073e
00000390: 706c c93d 9c54 ce3e ed1a 9dbd 3c26 983e
000003a0: 0908 73be b206 f9be 609b 2bbe fccc 633e
000003b0: 48b9 e5be 4d70 3ebe af33 b1be f139 10bd
000003c0: 9fda 84be eef6 03bf 8564 f8be da4a 0a3e
000003d0: 90be 6fbe 3250 b1be 0bd3 98be 93a0 2ebd
000003e0: 8d70 f73d 4286 fc3d a936 16bf a44e 88be
000003f0: 31dc 273e 8fd5 153c ddb5 8e3e 779d 773e

solution_network.8.bias f4 [25]
0.01210367 -0.08052359 0.12829682 -0.047125876 0.1280305 -0.10700388 -0.07401771 0.033439424
0.11012464 -0.077296786 -0.043771885 -0.026888084 0.19721423 0.044938527 -0.22178294 -0.18384725
0.22414103 0.14049846 0.071343966 -0.05339395 -0.19563556 0.26390252 -0.119594686 0.124597564
0.015773296
00000000: 794e 463c 8de9 a4bd 3e60 033e 1007 41bd
00000010: 6d1a 033e da24 dbbd 9996 97bd c7f7 083d
00000020: 0789 e13d c74d 9ebd 264a 33bd 6644 dcbc
00000030: 87f2 493e 7611 383d 111b 63be 7442 3cbe
00000040: 3a85 653e d4de 0f3e c91c 923d 9db3 5abd
00000050: b054 48be 3b1e 873e 0fee f4bd 022d ff3d
00000060: 0037 813c

solution_network.10.weight f4 [25, 25]
-0.094131455 0.1661042 -0.21724074 -0.024278859 -0.037788942 0.095264085 0.051623862 -0.23256701
-0.09067483 -0.059068583 -0.0065305126 -0.21446592 -0.06753402 -0.18194206 0.15087968 -0.03356753
-0.15690263 -0.2309766 0.026482614 -0.065026976 0.06639482 -0.19621812 -0.30656528 -0.059710637
-0.022667356 -0.13757941 0.012654109 0.19123839 -0.16202885 -0.30885777 0.08367126 -0.1462184
0.30673847 0.10494885 -0.105949014 -0.05527552 -0.0070431796 -0.054009102 -0.0821589 -0.15151101
0.072831675 -0.16960835 0.45371732 0.099958576 -0.13422178 -0.15309429 -0.17479491 0.2360619
-0.10775944 0.07142496 -0.107700996 -0.04819189 0.010711701 0.0129984915 -0.12099348 -0.012089941
-0.08471249 0.13179311 -0.2243962 -0.039101165 0.03941637 -0.24810036 -0.064585134 -0.013966673
-0.30693492 -0.27909145 -0.11128403 0.06286027 0.032600578 -0.1479624 -0.13087307 -0.17536354
-0.010363181 0.09609899 -0.09854624 -0.14372568 0.1372395 -0.25605643 -0.0815751 -0.29682946
0.09785126 -0.13399741 -0.40305135 -0.11399561 -0.17420462 -0.17904256 -0.11543105 -0.19844837
-0.29596862 -0.23806596 -0.15441732 -0.14657086 -0.39918232 0.06330986 -0.22367465 -0.16008599
-0.3831203 -0.13689211 -0.03166312 -0.024109064 0.108003914 -0.14838532 -0.056629237 -0.19972786
-0.19538349 0.07231138 -0.098470464 -0.52773476 -0.1762323 0.098680414 0.09921626 -0.19059283
0.016676327 -0.15586975 0.08634131 -0.10567179 -0.12183722 -0.5240084 -0.005786636 -0.121961035
-0.27720112 0.27878723 -0.17140432 -0.11120957 -0.08058793 -0.44694564 0.100895286 -0.026216496
-0.3344986 -0.42066932 -0.18419792 -0.33347183 -0.0018675308 -0.1686357 -0.29378206 -0.37829238
-0.4572044 -0.3101859 -0.2777685 -0.14481163 0.3381777 -0.42368746 -0.24314201 -0.2331337
-0.037655767 0.008261224 -0.48613417 -0.060009245 -0.24665277 -0.043885026 0.6753609 -0.048354115
0.13402575 0.25901482 0.3273206 0.21187335 0.29879528 -0.010254642 0.16179936 0.274271
0.26958779 0.32405838 0.256656 0.020546736 -0.001173563 -0.22935982 0.1267199 -0.032147534
0.14767545 0.08090259 0.11642917 0.44166696 0.3447411 0.26792082 0.05644235 0.09699409
-0.32415307 -0.14158425 -0.010793403 0.13853054 -0.16689117 -0.13453637 -0.15506689 -0.115190566
0.11635338 -0.15956955 -0.083940215 -0.2668545 -0.012670951 -0.09055053 0.011840461 0.09671754
-0.32383433 -0.15463813 -0.23282999 -0.14165473 0.20914708 -0.37410694 -0.15702522 -0.14349903
-0.20699085 0.015088834 -0.08653535 -0.015335015 -0.0069727404 -0.17972367 0.08604432 0.30598953
-0.069610655 -0.09193013 0.08159823 -0.008839065 0.13568304 0.13547337 -0.061174028 -0.07012676
-0.075231895 0.3981391 -0.20237619 -0.008496394 0.08163464 0.10533164 0.09314455 0.20803711
3.6223064e-05 -0.1329035 -0.12038522 -0.20192705 -0.07377709 0.024309408 -0.058498476 -0.07872666
-0.030984629 -0.06684055 -0.24783662 -0.09562017 -0.17696549 -0.24148941 -0.3294045 -0.29704967
-0.34472838 -0.26154703 -0.09174531 -0.047275554 -0.2573308 -0.25057104 -0.05499447 -0.26232573
0.008216818 -0.0996171 0.15158513 -0.19074072 0.2177286 -0.07783283 0.14720817 0.19243222
00000000: fec7 c0bd 3817 2a3e 5b74 5ebe 75e4 c6bc
00000010: 94c8 1abd d119 c33d 8b73 533d 0c26 6ebe
00000020: bab3 b9bd e6f1 71bd e9fd d5bb f49c 5bbe
00000030: 474f 8abd 054f 3abe 3480 1a3e 1b7e 09bd
00000040: 15ab 20be 2185 6cbe 11f2 d83c dd2c 85bd
00000050: 02fa 873d 67ed 48be 20f6 9cbe 2493 74bd
00000060: e4b0 b9bc 9ee1 0cbe 2e53 4f3c ffd3 433e
00000070: e4ea 25be 9b22 9ebe d65b ab3d 47ba 15be
00000080: d30c 9d3e 6cef d63d ccfb d8bd 9568 62bd
00000090: 79ca e6bb a638 5dbd ed42 a8bd b425 1bbe
000000a0: c628 953d d0ad 2dbe a34d e83e 15b7 cc3d
000000b0: 6f71 09be c0c4 1cbe 70fd 32be 36ba 713e
000000c0: fbb0 dcbd 4047 923d 5792 dcbd dc64 45bd
000000d0: 2180 2f3c a0f7 543c 6ecb f7bd e314 46bc
000000e0: be7d adbd c6f4 063e 1ec8 65be 8b28 20bd
000000f0: 0f73 213d 050e 7ebe 3645 84bd 79d4 64bc
00000100: 9326 9dbe 13e5 8ebe e2e8 e3bd e3bc 803d
00000110: 2f88 053d 7583 17be 9703 06be 8092 33be
00000120: 55ca 29bc 8ccf c43d 9cd2 c9bd d32c 13be
00000130: 8388 0c3e d419 83be d910 a7bd 08fa 97be
00000140: 3e66 c83d 9e36 09be bf5c cebe 8876 e9bd
00000150: b262 32be ef56 37be 1d67 ecbd 0d36 4bbe
00000160: 3389 97be 90c7 73be 931f 1ebe ac16 16be
00000170: a061 ccbe 9aa8 813d f80a 65be 95ed 23be
00000180: 5828 c4be 722d 0cbe 30b1 01bd 5f80 c5bc
00000190: 2831 dd3d 52f2 17be 0ff4 67bd 7685 4cbe
000001a0: 9c12 48be fd17 943d e2aa c9bd a019 07bf
000001b0: 3d76 34be f518 ca3d e531 cb3d c42a 43be
000001c0: cb9c 883c 529c 1fbe b6d3 b03d 746a d8bd
000001d0: cb85 f9bd 6a25 06bf d29d bdbb b5c6 f9bd
000001e0: 4eed 8dbe 33bd 8e3e 9d84 2fbe d8c1 e3bd
000001f0: 490b a5bd 0fd6 e4be 30a2 ce3d fac3 d6bc
00000200: 6743 abbe f861 d7be 619e 3cbe d2bc aabe
00000210: efc7 f4ba d6ae 2cbe 9a6a 96be 8aaf c1be
00000220: b216 eabe b0d0 9ebe ac37 8ebe 8049 14be
00000230: a125 ad3e 90ed d8be 38fa 78be 9aba 6ebe
00000240: ef3c 1abd 165a 073c 94e6 f8be 41cc 75bd
00000250: 8b92 7cbe c9c0 33bd 74e4 2c3f f70e 46bd
00000260: 0c3e 093e 979d 843e 9196 a73e 54f5 583e
00000270: b2fb 983e 1603 28bc bbae 253e 406d 8c3e
00000280: 6907 8a3e fbea a53e 6a68 833e a151 a83c
00000290: 3dd2 99ba 4ddd 6abe ddc2 013e 22ad 03bd
000002a0: 3c38 173e 42b0 a53d 6b72 ee3d 2c22 e23e
000002b0: e881 b03e eb2c 893e 1830 673d d6a4 c63d
000002c0: 64f7 a5be 76fb 10be d0d6 30bc f3da 0d3e
000002d0: 85e5 2abe e7c3 09be dbc9 1ebe 08e9 ebbd
000002e0: ae4a ee3d 3366 23be d9e8 abbd 27a1 88be
000002f0: d299 4fbc 8e72 b9bd 7efe 413c d813 c63d
00000300: 9dcd a5be 7559 1ebe fc6a 6ebe f00d 11be
00000310: a72a 563e f28a bfbe 38cb 20be 69f1 12be
00000320: 69f5 53be 2837 773c 7239 b1bd b73f 7bbc
00000330: 967b e4bb 7b09 38be 0138 b03d a9aa 9c3e
00000340: 0890 8ebd dd45 bcbd f91c a73d bad1 10bc
00000350: 7ff0 0a3e 88b9 0a3e 9e91 7abd 9e9e 8fbd
00000360: 2e13 9abd e3d8 cb3e b43b 4fbe 7634 0bbc
00000370: 1030 a73d 1db8 d73d 92c2 be3d ae07 553e
00000380: 38ee 1738 db17 08be 878c f6bd f7c5 4ebe
00000390: 7118 97bd 8624 c73c 199c 6fbd 713b a1bd
000003a0: 7ad3 fdbc b3e3 88bd e2c8 7dbe 82d4 c3bd
000003b0: 7136 35be 0049 77be b5a7 a8be e516 98be
000003c0: 3d80 b0be 7ee9 85be f7e4 bbbd 03a4 41bd
000003d0: ddc0 83be d94a 80be e241 61bd 8f4f 86be
000003e0: d59f 063c 0d04 ccbd 2239 1b3e 8951 43be
000003f0: 3ff4 5e3e d266 9fbd bdbd 163e f40c 453e

solution_network.10.bias f4 [25]
-0.006329627 -0.15663531 -0.21998899 -0.16759418 0.03161215 -0.012642522 -0.079351954 -0.10555467
0.099884056 -0.21753995 0.008129128 0.078083664 0.09071906 0.035600115 -0.07684621 -0.20605674
0.015443846 0.045613844 -0.06593755 -0.19190139 -0.0070756394 -0.045425147 -0.034261104 -0.03295973
-0.1769962
00000000: c268 cfbb 0265 20be cb44 61be cf9d 2bbe
00000010: be7b 013d 9522 4fbc 4783 a2bd 0c2d d8bd
00000020: 0390 cc3d cbc2 5ebe 0930 053c 54ea 9f3d
00000030: eaca b93d 6dd1 113d 8c61 9dbd 8a00 53be
00000040: 2f08 7d3c 95d5 3a3d 440a 87bd cc81 44be
00000050: c4da e7bb b80f 3abd 5f55 0cbd c800 07bd
00000060: 7e3e 35be

solution_network.12.weight f4 [3, 25]
0.032314584 0.009107064 -0.15670504 -0.07623902 0.016599106 -0.17448477 0.23772159 -0.066717796
0.029155409 -0.12479999 0.19301602 -0.087499134 0.12485539 0.22547777 0.05123202 -0.14619616
0.16444692 0.0025551086 0.14338906 0.020745575 0.21212325 -0.17504221 -0.04786247 -0.04230805
0.05852269 0.18890414 0.16111834 -0.072348036 0.19614618 -0.011552277 0.23728332 -0.14382397
-0.115384676 0.07915087 -0.026428869 -0.1456393 0.008437589 0.11853786 -0.007870904 0.21393378
0.15838331 0.01588787 0.07816634 0.24996343 0.17424588 0.023196504 0.07282844 0.1586496
0.15216288 -0.008495035 0.06951865 -0.14989465 -0.0038842198 0.10365277 0.077432096 -0.026100628
0.03727454 0.13500331 -0.17141193 0.061929345 0.11448551 0.12290648 0.009325282 0.02426639
0.02718492 -0.13274482 0.1785545 0.12302899 -0.10331079 0.104658924 0.04683138 0.02352749
-0.025019398 0.15443763 0.16510397
00000000: 4c5c 043d cc35 153c 4977 20be 3423 9cbd
00000010: d9fa 873c 23ac 32be 4a6d 733e 57a3 88bd
00000020: 53d7 ee3c 2397 ffbd fea5 453e bf32 b3bd
00000030: 2fb4 ff3d a5e3 663e abd8 513d 72b4 15be
00000040: c664 283e 9c73 273b 95d4 123e a0f2 a93c
00000050: d636 593e 443e 33be 700b 44bd 354b 2dbd
00000060: 7db5 6f3d 1670 413e 35fc 243e 352b 94bd
00000070: 8bda 483e c345 3dbc 66fa 723e 9746 13be
00000080: cd4e ecbd da19 a23d 5b81 d8bc 7822 15be
00000090: d03d 0a3c fac3 f23d f7f4 00bc 7511 5b3e
000000a0: 3c2f 223e 4727 823c ad15 a03d 6af6 7f3e
000000b0: 836d 323e 9806 be3c 1427 953d 0a75 223e
000000c0: 96d0 1b3e c22e 0bbc cb5f 8e3d fc7d 19be
000000d0: 658e 7ebb e747 d43d b894 9e3d fcd0 d5bc
000000e0: 30ad 183d 4f3e 0a3e 9c86 2fbe a0a9 7d3d
000000f0: 6177 ea3d 65b6 fb3d 11c9 183c 4fca c63c
00000100: e9b2 de3c 42ee 07be fed6 363e a0f6 fb3d
00000110: 9c94 d3bd 6b57 d63d 43d2 3f3d b9bc c03c
00000120: 7bf5 ccbc e624 1e3e 0411 293e

solution_network.12.bias f4 [3]
-0.10251657 -0.011773691 0.1717858
00000000: 35f4 d1bd 70e6 40bc 9ee8 2f3e
